PythonScripts/model.2.onnx (onnx, 107131 bytes, 7 tensors)

output/kernel:0 f4 [32, 1]
-0.00087744783 -0.004600163 0.042308774 0.005710792 -0.004734654 0.029352358 0.0026502272 -0.0066788713
0.017742788 -0.0033378869 -0.010185976 0.0028291473 0.004590229 0.03673266 -0.0094976025 -0.004077591
-0.007001203 0.015602847 0.008398673 -0.003367244 -0.0071695414 -0.006137071 -0.029805083 0.015677765
-0.0049233646 0.0067418604 0.0049753916 -0.010369317 -0.0056437785 -0.004020329 0.017126909 0.20421568
00000000: 8704 66ba f7bc 96bb f74b 2d3d 9821 bb3b
00000010: 2825 9bbb 5b74 f03c 6faf 2d3b 6fda dabb
00000020: 5359 913c 73c0 5abb 14e3 26bc 3769 393b
00000030: a269 963b fc74 163d d59b 1bbc 509d 85bb
00000040: 596a e5bb 15a3 7f3c 969a 093c fbac 5cbb
00000050: 79ee eabb 7c19 c9bb ca29 f4bc a86e 803c
00000060: 2d54 a1bb d3ea dc3b 9c08 a33b 11e4 29bc
00000070: 72ef b8bb f7bc 83bb bb4d 8c3c ea1d 513e

dense_2/kernel:0 f4 [512, 32]
0.72338074 -0.13312715 0.30698836 0.15417694 0.44502807 -0.44770384 0.1852895 1.2120078
0.33123717 0.14578733 0.19452481 0.20239884 0.14702113 -0.28089538 -1.0530821 -0.7328924
0.20770827 -0.10931498 0.10576002 -0.13175142 -0.9598993 0.11929117 0.40637466 0.11345559
1.1955659 0.23223807 0.22819108 -0.004733159 0.49353614 0.0610548 -0.08840667 0.10604782
-0.08187432 -0.9035767 -0.6178484 0.006884482 0.33649614 0.7305056 -0.24302752 -0.9261009
-0.27208096 -0.055301793 -0.21217138 -0.2605524 -0.12956643 0.57060987 0.61073864 0.286956
0.07735341 -0.15316693 -0.20084217 -0.24345334 0.23981284 -0.2807676 -0.9142959 0.1576001
-0.29504645 -0.003145692 -0.21860075 0.81997234 -0.36261225 -0.68283 -0.56965244 -0.1471792
-0.21660465 -0.5727662 -0.26167193 0.07459454 0.05265444 0.4684236 0.20187151 -1.30894
0.052813087 -0.02378616 -0.090579614 -0.019441798 0.17382275 0.51352537 1.282775 0.601388
-0.24224813 0.30680335 0.22497976 0.15010999 0.4454025 0.61576176 -0.6255701 0.1125393
-0.3767539 0.25932872 0.047369257 0.023019973 0.44506726 0.20732912 -0.03209046 -0.11510434
0.38297075 -0.7326466 -0.5264478 -0.012048243 0.09794288 -0.07604567 -0.30488983 -0.69204074
-0.19022302 -0.07756079 -0.22574261 -0.068710975 -0.050038423 -0.3663618 0.5266861 -0.7274568
0.34326163 0.1447469 0.14843363 -0.12074444 0.837641 0.19784498 -0.31332654 -0.172324
0.51841736 -0.20977475 0.13144661 1.1188312 0.18878521 -0.22029647 0.025438035 -0.037489947
-0.6490079 -0.086859584 0.09249612 0.25539318 0.694214 -0.16458651 0.311802 0.94801843
0.08555146 0.6327964 -0.8671285 -0.43883857 0.0972654 0.15489204 -1.294474 -0.43277657
1.3224261 0.054982476 0.1948468 1.2128997 -0.17230964 0.04535003 0.40459734 0.057270553
-0.7520107 -0.23486927 0.19413294 -1.7916968 0.0009078961 0.33454338 0.18598843 0.3284331
-0.31140736 -0.022563303 0.31960386 -0.07863592 -0.933585 0.13991082 -0.15588701 0.39088205
-0.24683785 -0.38369605 -0.39476234 -0.065036125 -0.10371135 0.15070163 -0.9158513 -0.13866575
0.023394182 0.20089456 0.0012273656 -0.4428531 -0.49685934 -0.72953594 0.31022888 -0.16962506
-0.7518146 -0.056095153 -0.16932705 -0.09098051 -0.0673706 -0.20805645 0.17257012 -0.096364774
-0.36473262 -0.6586961 0.009446783 -0.15601711 -1.3244289 -0.018055435 -0.18692839 -0.8570002
-0.04578977 -1.2275691 0.17023142 -0.4540096 -0.301202 0.5626444 0.79292196 -1.021269
-1.2424905 0.32387134 -0.25735208 -0.68067235 -0.16023718 -0.37395033 -0.5439532 -0.3036373
-0.9843289 -0.09524123 -0.06864844 -0.44524518 -0.563882 -0.9283387 -0.10213077 -0.19576164
0.035605405 -0.05012773 0.10573974 0.020872038 0.37800708 -0.21367598 0.061843786 -0.4442813
-0.07075728 0.46914938 -0.43900597 0.10879537 0.10160651 -0.64474803 0.23859037 0.19909856
-0.4790355 -0.2052196 -0.17292489 -0.38230547 0.86256504 -0.7449877 -0.33602783 0.04241935
0.3240966 -0.082817756 0.15740542 -0.26895973 -0.54813683 -0.23443398 0.1521756 -0.21852237
00000000: 7b2f 393f 7c52 08be 942d 9d3e 8fe0 1d3e
00000010: b8da e33e 7039 e5be 88bc 3d3e 1223 9b3f
00000020: eb97 a93e 4649 153e 8331 473e a441 4f3e
00000030: b58c 163e 85d1 8fbe 65cb 86bf d69e 3bbf
00000040: 7ab1 543e 88e0 dfbd b698 d83d d8e9 06be
00000050: f6bb 75bf ee4e f43d 5710 d03e 685b e83d
00000060: 4e08 993f d1cf 6d3e ecaa 693e 9e18 9bbb
00000070: c5b0 fc3e 9914 7a3d 8e0e b5bd 992f d93d
00000080: b9ad a7bd cd50 67bf 502b 1ebf 3997 e13b
00000090: 3949 ac3e 6a02 3b3f 35dc 78be f314 6dbf
000000a0: 324e 8bbe 2284 62bd 7443 59be 2067 85be
000000b0: 10ad 04be 7d13 123f 5e59 1c3f e6eb 923e
000000c0: 776b 9e3d cbd7 1cbe 92a9 4dbe d54b 79be
000000d0: 7f91 753e c5c0 8fbe 4c0f 6abf ec61 213e
000000e0: 5410 97be f427 4ebb e0d8 5fbe b5e9 513f
000000f0: 50a8 b9be f2cd 2ebf bed4 11bf 25b6 16be
00000100: 9ccd 5dbe cea0 12bf ddf9 85be 06c5 983d
00000110: 2fac 573d 38d5 ef3e 68b7 4e3e 598b a7bf
00000120: 8952 583d 31db c2bc ce81 b9bd 6844 9fbc
00000130: 97fe 313e 6676 033f f931 a43f 90f4 193f
00000140: e50f 78be 5415 9d3e 1861 663e 6fb6 193e
00000150: cc0b e43e 90a2 1d3f 5d25 20bf 017b e63d
00000160: e3e5 c0be bcc6 843e 4406 423d 6294 bc3c
00000170: dbdf e33e 164e 543e 4971 03bd d3bb ebbd
00000180: be14 c43e ba8e 3bbf 48c5 06bf fe65 45bc
00000190: 4796 c83d d5bd 9bbd 851a 9cbe 9529 31bf
000001a0: d3c9 42be 31d8 9ebd 1229 67be 57b8 8cbd
000001b0: 17f5 4cbd c693 bbbe e6d4 063f 9c3a 3abf
000001c0: fdbf af3e 8838 143e fcfe 173e dc48 f7bd
000001d0: a46f 563f e097 4a3e 566c a0be b475 30be
000001e0: 00b7 043f 31cf 56be f199 063e dc35 8f3f
000001f0: e950 413e 6695 61be 6d63 d03c 0f8f 19bd
00000200: 6225 26bf 70e3 b1bd 9b6e bd3d e5c2 823e
00000210: 02b8 313f 5e89 28be 83a4 9f3e 56b1 723f
00000220: 9b35 af3d f2fe 213f 22fc 5dbf 73af e0be
00000230: 1533 c73d 059c 1e3e 53b1 a5bf e494 ddbe
00000240: 4245 a93f 4e35 613d eb85 473e 4c40 9b3f
00000250: f071 30be f4c0 393d 6227 cf3e 8794 6a3d
00000260: c683 40bf 9281 70be c9ca 463e 5256 e5bf
00000270: e0ff 6d3a 4549 ab3e c073 3e3e 6228 a83e
00000280: c970 9fbe add6 b8bc 1ea3 a33e df0b a1bd
00000290: 6dff 6ebf c844 0f3e d8a0 1fbe b121 c83e
000002a0: 10c3 7cbe cf73 c4be 4a1e cabe a931 85bd
000002b0: 9e66 d4bd 8751 1a3e 3b75 6abf 65fe 0dbe
000002c0: 28a5 bf3c 4eb7 4d3e 8edf a03a a4bd e2be
000002d0: 5964 febe dec2 3abf 52d6 9e3e 31b2 2dbe
000002e0: ec76 40bf 08c4 65bd 1264 2dbe fd53 babd
000002f0: 99f9 89bd c00c 55be 39b6 303e e55a c5bd
00000300: 3cbe babe 4fa0 28bf aec6 1a3c f3c2 1fbe
00000310: e386 a9bf fee8 93bc 286a 3fbe 5d64 5bbf
00000320: 0e8e 3bbd fc20 9dbf 2551 2e3e f273 e8be
00000330: 2637 9abe 7709 103f effc 4a3f f1b8 82bf
00000340: ee09 9fbf 77d2 a53e a7c3 83be 8b40 2ebf
00000350: 3715 24be 6b76 bfbe 8440 0bbf 5976 9bbe
00000360: fbfc 7bbf d60d c3bd 8e97 8cbd 2df7 e3be
00000370: 925a 10bf 9ba7 6dbf f029 d1bd bd75 48be
00000380: f9d6 113d bc52 4dbd 148e d83d d6fb aa3c
00000390: 258a c13e e0cd 5abe e94f 7d3d d778 e3be
000003a0: 31e9 90bd 5934 f03e 64c5 e0be 1bd0 de3d
000003b0: 1317 d03d 350e 25bf 0951 743e 7ee0 4b3e
000003c0: 2444 f5be 1625 52be 3913 31be 8bbd c3be
000003d0: 10d1 5c3f 84b7 3ebf d70b acbe eabf 2d3d
000003e0: fdef a53e 5b9c a9bd e32e 213e 17b5 89be
000003f0: b252 0cbf 760f 70be ecd3 1b3e 54c4 5fbe

dense_2/bias:0 f4 [32]
-0.36451185 -0.6970468 0.42231357 0.14046288 -0.63093686 0.7609601 0.15912253 -0.732199
0.17377855 -0.8898945 -0.495396 -0.34282815 0.1127074 0.55721325 -0.189159 -0.6594514
-0.5784318 0.22114986 0.1325278 -0.72448355 -0.40254235 -0.72647905 -0.4731046 0.3379781
-0.5729866 0.07153672 0.030422542 -0.5112283 -0.50126857 -0.720947 0.23362553 0.0052722148
00000000: 4ca1 babe a971 32bf 7c39 d83e 80d5 0f3e
00000010: 1485 21bf 48ce 423f 04f1 223e 6571 3bbf
00000020: 01f3 313e 20d0 63bf 8ba4 fdbe 2c87 afbe
00000030: 23d3 e63d 87a5 0e3f e6b2 41be cfd1 28bf
00000040: 1b14 14bf 1c75 623e 5eb5 073e c177 39bf
00000050: 081a cebe 88fa 39bf c43a f2be 770b ad3e
00000060: 40af 12bf d881 923d b238 f93c dcdf 02bf
00000070: 2353 00bf fc8f 38bf 883b 6f3e 8bc2 ac3b

conv2d_5/kernel:0 f4 [32, 32, 3, 3]
-0.01942746 -0.31959537 0.23457006 0.20916586 -0.33346462 -0.2640017 -1.0941314 -0.84837186
0.93568176 0.2130373 -0.37214273 0.5122176 -0.18578571 -0.7327567 1.060929 -1.168635
-0.20474213 0.50952506 0.5581964 -0.5055459 0.06322169 -1.0018109 0.013862379 0.25517583
-0.6056996 0.47013837 -0.53927225 -1.0477607 0.42516488 0.30818623 1.2268115 -0.2820802
0.78022724 1.6956786 -0.18814896 0.32921627 -0.28542534 0.028586272 0.02984725 -0.045818515
0.31629425 0.98931944 0.6527334 -1.2961261 0.5198489 -0.17448132 -0.7342668 0.22046907
-0.365589 0.5934555 -0.3484595 -0.82993674 0.3753144 -0.40719312 0.11578772 0.3657246
0.028392358 -0.3406989 0.2876365 -0.012335243 -1.3257037 0.22986563 0.5920099 -0.9204225
-0.5650155 -0.6029298 -0.9854819 0.7956002 0.85166496 -0.56616104 0.3032518 0.49393678
0.40858367 0.2264855 0.3504415 -0.21664928 -0.08594577 0.020520318 0.58450687 -0.7871811
0.26551524 1.3285507 -1.3566852 -0.61115044 -1.1177502 0.8568385 0.47160918 0.2055137
-1.0825804 1.3068442 -0.5155484 -0.050279584 0.55066186 0.6524879 -0.23019415 0.5499205
-0.33960438 0.625283 -0.0065827025 -0.4308229 -0.34501106 0.18318379 -0.19226317 -0.018489504
-1.0375204 -0.07934082 1.1129546 -0.41124606 -0.035006717 0.86449754 0.66493267 0.6810071
0.93694454 0.13868384 0.20509739 1.0969688 0.8216592 -0.54437864 0.7478841 -0.4543362
-0.50639594 0.0056334906 0.983941 -0.4390821 -1.2011976 0.77672297 -0.3478356 0.2819195
-0.4823548 -0.024538016 -0.26149273 -0.5634027 -0.99463874 1.5087634 -1.1807864 -0.28922868
0.12255286 -0.09525337 0.35550314 -0.47213322 1.0379817 -0.10397313 0.1527383 -0.9365853
0.06795404 -0.07014565 -0.10859228 -0.13288856 0.82127887 0.4160716 -0.56529427 -0.613661
0.5024512 0.1372668 -0.47744754 0.98135287 0.9926047 0.23964947 -0.5572213 -0.12619145
-1.4529555 0.7176301 1.5570128 0.08067731 1.1524117 -1.6806755 -0.303177 0.83292454
-0.96485776 -0.80634254 -0.49105248 1.0540107 -0.444723 0.19189881 0.12832144 -0.83205074
0.6246108 -1.2093602 0.32779282 0.3903048 0.7355747 -0.3910962 0.357405 0.722731
-0.88709587 0.49610806 0.29793355 -1.6152056 1.8832844 0.61569846 0.3358545 -0.90164393
-0.6665822 0.021300491 -0.2561785 -0.43453264 0.66801697 -0.6523845 -0.013156282 -0.5654596
-0.012377384 -0.54786164 -0.24694516 0.45278054 -0.07441873 0.8699389 -0.42118064 1.0020107
-0.044313647 0.80343807 -0.7761536 -0.283523 0.12617989 -1.2528641 0.043082613 1.0648389
-0.5869411 -0.57430035 -0.45048872 0.22847636 0.3406325 -0.26296636 -0.36355403 0.49308005
-0.031190092 0.02631714 0.050605666 -0.4190965 1.105947 -0.9080772 0.3306941 -0.38171935
-0.29192933 -0.08570291 0.031344146 -0.051217824 0.8808921 0.21013105 0.051481508 -0.23156187
0.6756689 -1.3240203 -0.22258523 0.294174 -0.69691986 -0.34794882 0.15307236 0.4440711
-0.05345488 -1.232747 -0.37067705 -0.121515185 -0.19328712 0.73605245 0.5771724 1.1004968
00000000: 5626 9fbc 01a2 a3be 2233 703e 932f 563e
00000010: e0bb aabe 3b2b 87be 7f0c 8cbf e62e 59bf
00000020: d788 6f3f 7326 5a3e 7e89 bebe b120 033f
00000030: 9c3e 3ebe f195 3bbf 85cc 873f d595 95bf
00000040: eca7 51be 3c70 023f f6e5 0e3f 756b 01bf
00000050: 607a 813d 573b 80bf 081f 633c 68a6 823e
00000060: 210f 1bbf fab5 f03e bf0d 0abf 061d 86bf
00000070: 36af d93e 96ca 9d3e 2908 9d3f d16c 90be
00000080: f9bc 473f ff0b d93f 1faa 40be 098f a83e
00000090: 4523 92be c22d ea3c 3882 f43c 32ac 3bbd
000000a0: 52f1 a13e 0a44 7d3f 8919 273f 76e7 a5bf
000000b0: d114 053f 3bab 32be e9f8 3bbf a5c2 613e
000000c0: 7b2e bbbe b3ec 173f 4969 b2be bc76 54bf
000000d0: 3629 c03e 9e7b d0be 1d22 ed3d 4140 bb3e
000000e0: 1797 e83c 1670 aebe 1745 933e c219 4abc
000000f0: a9b0 a9bf e561 6b3e f68d 173f cfa0 6bbf
00000100: dba4 10bf 9b59 1abf 8b48 7cbf 74ac 4b3f
00000110: b706 5a3f eeef 10bf d243 9b3e 48e5 fc3e
00000120: e131 d13e d1eb 673e 116d b33e 4fd9 5dbe
00000130: 5604 b0bd 3a1a a83c 3ea2 153f b384 49bf
00000140: 9df1 873e f30d aa3f dca7 adbf 5b74 1cbf
00000150: 7012 8fbf c559 5b3f c276 f13e 2f72 523e
00000160: ff91 8abf ac46 a73f fbfa 03bf f7f1 4dbd
00000170: 2df8 0c3f 7209 273f 04b8 6bbe 97c7 0c3f
00000180: a0e0 adbe 8c12 203f b6b3 d7bb d294 dcbe
00000190: 4aa5 b0be 8894 3b3e a3e0 44be 4d77 97bc
000001a0: 78cd 84bf 717d a2bd 4c75 8e3f d88e d2be
000001b0: 3463 0fbd b64f 5d3f 0739 2a3f 7b56 2e3f
000001c0: 99db 6f3f 2303 0e3e 0d05 523e 7969 8c3f
000001d0: 4258 523f 665c 0bbf 5575 3f3f c19e e8be
000001e0: 2aa3 01bf 2599 b83b 8fe3 7b3f 5ecf e0be
000001f0: d8c0 99bf 51d7 463f 8217 b2be c157 903e
00000200: 35f7 f6be f303 c9bc 60e2 85be 293b 10bf
00000210: a5a0 7ebf 291f c13f 0224 97bf c815 94be
00000220: fefc fa3d 3314 c3bd 8204 b63e 72bb f1be
00000230: 96dc 843f ddef d4bd 6e67 1c3e 0ec4 6fbf
00000240: 7d2b 8b3d 86a8 8fbd a165 debd f013 08be
00000250: 553f 523f 5607 d53e 20b7 10bf e318 1dbf
00000260: a4a0 003f ab8f 0c3e 0174 f4be f139 7b3f
00000270: 571b 7e3f ac66 753e 0ea6 0ebf 5538 01be
00000280: 72fa b9bf 9bb6 373f 324c c73f 253a a53d
00000290: 3a82 933f 6020 d7bf 043a 9bbe 8b3a 553f
000002a0: eb00 77bf 776c 4ebf 3b6b fbbe d3e9 863f
000002b0: bcb2 e3be 1f81 443e b266 033e 4701 55bf
000002c0: 7ee6 1f3f 51cc 9abf 76d4 a73e 08d6 c73e
000002d0: a04e 3c3f c33d c8be cafd b63e e604 393f
000002e0: b718 63bf e001 fe3e bf8a 983e 0fbf cebf
000002f0: 770f f13f 6a9e 1d3f 1ff5 ab3e 23d2 66bf
00000300: 22a5 2abf 5e7e ae3c d429 83be 107b debe
00000310: 2903 2b3f ac02 27bf 728d 57bc f6c1 10bf
00000320: 83ca 4abc a940 0cbf 31df 7cbe dad2 e73e
00000330: d968 98bd 51b4 5e3f fda4 d7be e341 803f
00000340: 3a82 35bd 1eae 4d3f 01b2 46bf ed29 91be
00000350: 4d35 013e da5d a0bf 6577 303d a44c 883f
00000360: c641 16bf 5905 13bf 75a6 e6be b5f5 693e
00000370: 6267 ae3e 87a3 86be c123 babe fd74 fc3e
00000380: 5d82 ffbc 0b97 d73c e347 4f3d d193 d6be
00000390: ac8f 8d3f bf77 68bf bd50 a93e b870 c3be
000003a0: c377 95be 0285 afbd b862 003d c8c9 51bd
000003b0: 2582 613f 982c 573e 46de 523d 8e1e 6dbe
000003c0: a3f8 2c3f 7f79 a9bf 62ed 63be f99d 963e
000003d0: 5769 32bf 5926 b2be 00bf 1c3e 4a5d e33e
000003e0: 81f3 5abd a7ca 9dbf 62c9 bdbe f4dc f8bd
000003f0: 0fed 45be ef6d 3c3f 92c1 133f 14dd 8c3f

conv2d_5/bias:0 f4 [32]
-0.77871907 -0.23586695 -0.9560604 -1.5577354 -1.2854799 -0.018576642 -0.54299664 -0.51254904
-1.9178774 -0.78929836 -1.6758181 -0.20456786 -0.48221925 -0.26260802 -1.3404248 -0.16258702
-0.8997628 -0.14209995 -1.6766013 -0.0753432 0.13250364 -0.08407883 -0.39570788 -0.21096824
-0.7432864 0.11138351 -1.64375 -1.1738436 -1.0298849 0.5168091 -0.5994285 0.2063029
00000000: 225a 47bf 1b87 71be 60c0 74bf e063 c7bf
00000010: 9b8a a4bf 0b2e 98bc d401 0bbf 6a36 03bf
00000020: 027d f5bf 750f 4abf 3581 d6bf 3d7a 51be
00000030: 71e5 f6be 8f74 86be 0a93 abbf 367d 26be
00000040: db56 66bf a682 11be df9a d6bf 894d 9abd
00000050: 09af 073e 8631 acbd 399a cabe 0f08 58be
00000060: 0448 3ebf 0a1d e43d 6666 d2bf 8240 96bf
00000070: 45d3 83bf 9a4d 043f 2574 19bf 1141 533e

conv2d_4/kernel:0 f4 [32, 2, 3, 3]
-0.17528282 -0.23136546 -0.6500807 -0.2626737 -0.33914578 -0.27975148 1.4569641 -0.24836428
-0.33933473 0.0075659337 -0.36875865 0.10292105 -0.10530868 -0.5606992 -0.21072358 1.5171881
0.48653775 0.019166 0.13457093 -0.13247757 0.2125343 -2.237417 0.05160109 0.44695246
0.010909493 0.0100958245 -0.085800886 -0.092671216 -1.1490496 -0.46623632 -0.02381474 -2.3160868
-1.0643728 -0.121752515 -0.22537588 -0.12242393 -0.30545408 -0.16575193 -0.25756612 0.17490867
-0.05559258 -0.57722616 -0.20579554 0.71691865 -0.31528023 0.49635392 -0.24997962 0.6713606
0.3280711 0.11816362 -0.0032208604 0.23983274 0.6581284 0.09106322 -0.0027541837 0.34431043
0.08062796 -0.1153045 -0.14624417 0.2119478 -0.017997498 -0.087976165 0.23051882 -0.12981975
0.09716751 -0.8956548 0.021024564 0.07600741 -0.91057485 -0.046317443 0.112121 -0.4116502
0.19380899 0.33007762 0.41122586 0.122305885 -0.4614256 -0.1669406 0.35565275 -1.3144909
-0.4309708 -0.65560097 -0.8694258 -0.61035854 -1.2375237 -0.6006804 -0.5427881 -2.1580517
-0.72193384 -1.2076924 0.092756756 0.06325113 0.099348575 0.18986283 0.110069446 0.509939
0.28050214 0.39124307 0.19613622 -0.1559495 -0.4089664 -0.1261668 -0.17743169 -0.027042763
-0.18436004 -0.28864282 -0.7706273 -0.28060535 0.2545863 -0.4716862 0.41596675 0.8343993
0.1976925 -0.5920587 -1.5073315 0.37869123 0.09656928 0.18440855 0.2543255 0.3224443
0.7613663 -0.85336304 0.42220992 -0.7660691 0.47155502 0.44474557 -0.00054105115 -0.09300641
0.28585333 -0.14291579 -0.69822717 0.25511006 0.3475213 0.08812945 -0.46943527 0.2649199
0.037450954 0.3547161 -0.17133254 0.16842449 -0.3192923 0.46237707 0.09147708 0.029499184
-0.15891412 -1.2933728 0.18570682 0.44948897 0.04597773 0.3002511 -0.016540086 -0.8022819
-0.15972932 0.0649186 -0.30030409 -0.78315717 -2.1749325 -1.5657969 -0.15168989 -0.053571753
-0.04819731 -0.24799311 -0.02982103 0.109874226 -0.68508714 -1.4755894 0.8125757 -0.13158801
0.16227736 -0.2655631 0.17519623 -0.20790462 -0.071874656 0.05872899 0.26834598 -0.089553036
0.22761984 0.20174381 -0.09761094 0.051633958 0.022637675 0.19485448 0.3377745 0.11285555
-0.1090026 0.038133975 0.0018768823 0.044918083 0.14365418 -0.3184378 0.09028443 -0.45072913
0.01914201 -0.0031843062 -2.3349931 -0.0026016326 -3.8818378 0.21388875 0.22081657 0.21427126
0.1104639 0.11921933 -0.021979965 0.29508245 0.16559215 -0.0071937037 -1.5381082 -0.070783935
-1.1264662 0.022933958 -0.008407251 -0.015308263 0.066872 0.052733757 0.08735202 0.010771315
-0.59994805 -0.124208085 -0.4589226 -0.040504053 -0.6578277 -0.32415518 -0.4951845 -0.4107393
-0.10351277 -0.014109621 0.15865993 -0.0065644407 0.64987904 -0.15682004 -0.049445324 0.06133327
0.19634311 0.5791002 -0.3058671 0.7333906 -0.037465557 0.27191806 -5.4485908 0.015172038
-0.06516065 -0.26616022 -0.051095918 -0.22401394 -2.0888705 -0.12745166 -0.9879885 0.1115066
-1.9439169 0.038121533 -0.20395288 -0.19213557 0.0019044585 0.09745785 0.36172435 -0.13050075
00000000: 577d 33be 11eb 6cbe b06b 26bf 2b7d 86be
00000010: 84a4 adbe 963b 8fbe cd7d ba3f 3553 7ebe
00000020: 48bd adbe a7eb f73b efcd bcbe 45c8 d23d
00000030: 14ac d7bd fc89 0fbf ecc7 57be 3833 c23f
00000040: 7a1b f93e 0402 9d3c f6cc 093e 33a8 07be
00000050: 97a2 593e d731 0fc0 aa5b 533d f4d6 e43e
00000060: bbbd 323c f568 253c 60b8 afbd 68ca bdbd
00000070: 0f14 93bf 87b6 eebe 2117 c3bc c43a 14c0
00000080: 5e3d 88bf 6259 f9bd efc8 66be 66b9 fabd
00000090: 7a64 9cbe e0ba 29be b5df 83be 421b 333e
000000a0: 0cb5 63bd 18c5 13bf 11bc 52be fb87 373f
000000b0: 696c a1be 1a22 fe3e a8fa 7fbe 4ade 2b3f
000000c0: eff8 a73e c5ff f13d 1215 53bb b796 753e
000000d0: 1a7b 283f 5a7f ba3d 897f 34bb 7549 b03e
000000e0: 4620 a53d c424 ecbd 08c1 15be d808 593e
000000f0: 7d6f 93bc d92c b4bd 200d 6c3e 78ef 04be
00000100: c2ff c63d a249 65bf b53b ac3c c6a9 9b3d
00000110: 6f1b 69bf 5cb7 3dbd b29f e53d d1c3 d2be
00000120: dd75 463e efff a83e 328c d23e 827b fa3d
00000130: fa3f ecbe 7af2 2abe 1e18 b63e 3d41 a8bf
00000140: 34a8 dcbe 77d5 27bf b092 5ebf 7540 1cbf
00000150: 2d67 9ebf 31c6 19bf 29f4 0abf 851d 0ac0
00000160: a8d0 38bf aa95 9abf 41f7 bd3d cf89 813d
00000170: 4477 cb3d 676b 423e 176c e13d 5d8b 023f
00000180: fa9d 8f3e 0351 c83e efd7 483e 3ab1 1fbe
00000190: 0b64 d1be df31 01be a7b0 35be c988 ddbc
000001a0: e1c8 3cbe fec8 93be d547 45bf 81ab 8fbe
000001b0: 2359 823e db80 f1be 98f9 d43e 319b 553f
000001c0: e76f 4a3e 2991 17bf 3df0 c0bf d1e3 c13e
000001d0: 1dc6 c53d 98d5 3c3e f436 823e 6b17 a53e
000001e0: e7e8 423f 0076 5abf e62b d83e 1b1d 44bf
000001f0: a96f f13e b1b5 e33e 54d5 0dba 257a bebd
00000200: 5e5b 923e 8458 12be 04bf 32bf c99d 823e
00000210: 50ee b13e 377d b43d d259 f0be 95a3 873e
00000220: 2c66 193d 599d b53e cc71 2fbe 7877 2c3e
00000230: 487a a3be b0bc ec3e 5658 bb3d 46a8 f13c
00000240: 62ba 22be 3d8d a5bf ee29 3e3e 6b23 e63e
00000250: 2553 3c3d 83ba 993e 137f 87bc 5962 4dbf
00000260: 1590 23be 0bf4 843d 75c1 99be fd7c 48bf
00000270: 1832 0bc0 086c c8bf 9854 1bbe 0e6e 5bbd
00000280: 8b6a 45bd e8f1 7dbe 3c4b f4bc bd05 e13d
00000290: df61 2fbf 1de0 bcbf f604 503f 02bf 06be
000002a0: 092c 263e e3f7 87be a466 333e f3e4 54be
000002b0: 0533 93bd cf8d 703d a564 893e 9567 b7bd
000002c0: 2d15 693e ee95 4e3e 3fe8 c7bd 217e 533d
000002d0: a572 b93c ef87 473e c7f0 ac3e d020 e73d
000002e0: c13c dfbd 5f32 1c3d b801 f63a 06fc 373d
000002f0: 151a 133e 480a a3be 0be7 b83d f8c5 e6be
00000300: b4cf 9c3c cbaf 50bb 8770 15c0 2780 2abb
00000310: 0870 78c0 a705 5b3e bd1d 623e ed69 5b3e
00000320: e63a e23d 4429 f43d 540f b4bc 0c15 973e
00000330: fd90 293e 29b9 ebbb bbe0 c4bf 2bf7 90bd
00000340: 0b30 90bf ffdf bb3c 91be 09bc 82cf 7abc
00000350: 30f4 883d 5aff 573d 9ee5 b23d 2b7a 303c
00000360: 3296 19bf cf60 febd e7f7 eabe 94e7 25bd
00000370: 6567 28bf abf7 a5be d388 fdbe 6c4c d2be
00000380: 81fe d3bd 0a2c 67bc c077 223e 851a d7bb
00000390: 795e 263f 6f95 20be 2e87 4abd 9838 7b3d
000003a0: 2b0e 493e e93f 143f 9d9a 9cbe 7dbf 3b3f
000003b0: 7c75 19bd d838 8b3e db5a aec0 2494 783c
000003c0: f272 85bd 2746 88be f449 51bd e963 65be
000003d0: 0eb0 05c0 b082 02be d0ec 7cbf 935d e43d
000003e0: 45d2 f8bf 5325 1c3d 06d9 50be 30bf 44be
000003f0: 069f f93a fb97 c73d ef33 b93e fda1 05be

conv2d_4/bias:0 f4 [32]
-1.2908952 -0.2284633 -1.2459933 -0.44017923 -0.111768454 -0.43587464 -1.1635164 -0.6709589
-0.060466904 -0.9478692 -0.33566254 -0.51899064 -0.45692554 -0.49816814 -1.0150465 -0.70703757
-1.8962983 -0.24545814 -1.0773015 -1.0565642 -0.6413897 -0.0031770174 -0.9450478 -1.039188
0.18285614 -0.9759613 -1.1531237 -0.33401775 -0.7500441 -0.36201388 -0.9468552 -1.1222452
00000000: 0e3c a5bf 49f2 69be b57c 9fbf 2c5f e1be
00000010: dce6 e4bd f62a dfbe 1bee 94bf f6c3 2bbf
00000020: 25ac 77bd 8ea7 72bf f6db abbe 92dc 04bf
00000030: 25f2 e9be e50f ffbe 0bed 81bf 6a00 35bf
00000040: e7b9 f2bf 6159 7bbe 04e5 89bf 7f3d 87bf
00000050: 1e32 24bf 8235 50bb a7ee 71bf 1d04 85bf
00000060: a43e 3b3e 9ad8 79bf 8f99 93bf 6004 abbe
00000070: e402 40bf e259 b9be 1a65 72bf bba5 8fbf
