PythonScripts/model.1.onnx (onnx, 107092 bytes, 7 tensors)

output/kernel:0 f4 [32, 1]
0	0xc164bccc	-14.296093
1	0x3eeab9d3	0.45844898
2	0x40083f1f	2.1288526
3	0xc0ded69b	-6.963697
4	0x41062da8	8.386147
5	0x416d036e	14.813337
6	0xc14073da	-12.028284
7	0xbfa9b381	-1.3257905
8	0xc1a5503b	-20.664175
9	0x3f75c41c	0.96002364
10	0x4095c733	4.6805663
11	0xc154e235	-13.305226
12	0x419abc4b	19.34194
13	0x4143c30a	12.235117
14	0xc0c25904	-6.073366
15	0x3e214b64	0.15751415
16	0x415f8c6e	13.971785
17	0xbfdc1642	-1.7194293
18	0xc01dbfc5	-2.4648297
19	0xc0e3cb10	-7.118538
20	0xc02e3226	-2.7218108
21	0x40277001	2.6162112
22	0x4057fb62	3.3747182
23	0x409038be	4.5069265
24	0xc10abdcc	-8.671337
25	0x411b5ba5	9.709874
26	0xc0df7e9a	-6.9842043
27	0x41cfb7d9	25.96477
28	0x40b23e92	5.570138
29	0xc120932e	-10.035933
30	0x3ef2a60b	0.47392306
31	0x40e073ed	7.014151

dense_1/kernel:0 f4 [512, 32]
0	0xc00669f5	-2.100217
1	0x40f3d626	7.619891
2	0xc0864a27	-4.196552
3	0x40110b16	2.2663016
4	0xc0154515	-2.3323414
5	0x415adbb6	13.67864
6	0xc15bbd8b	-13.733775
7	0xbfbb220f	-1.4619769
8	0x40b295d8	5.5807915
9	0x3ff3960c	1.9030166
10	0xc17b2df4	-15.698719
11	0xc191ea46	-18.239391
12	0x403f9e31	2.9940302
13	0xc0e40d99	-7.12666
14	0xc08981a6	-4.297076
15	0xc14b7769	-12.716653
16	0x419950af	19.164396
17	0x40d53b44	6.6634846
18	0xc1018410	-8.094742
19	0x4115f59c	9.372463
20	0x413b855d	11.720059
21	0xc0f900d8	-7.781353
22	0xc0dbb352	-6.8656397
23	0x40a92bee	5.2866125
24	0x4031d1aa	2.7784219
25	0x3f9a5e11	1.2059957
26	0xbe42f929	-0.1904036
27	0x3fd80f70	1.6879711
28	0x40d688ee	6.704215
29	0x41054bc4	8.330997
30	0xbfb3c2ad	-1.4043785
31	0xbee5baab	-0.4486898
32	0x3e83e4d0	0.25760508
33	0xc145f0ab	-12.371257
34	0xc091d1bc	-4.5568523
35	0xc18dd875	-17.730692
36	0xc1823074	-16.273659
37	0x418139c0	16.153198
38	0xc0b956d2	-5.791848
39	0x40a17de0	5.0466156
40	0xc0145b87	-2.3180864
41	0x3e0612f8	0.13093174
42	0xc0152447	-2.3303392
43	0xc07e508d	-3.9736664
44	0x41729522	15.161409
45	0x411675bb	9.403743
46	0xc14de68b	-12.868785
47	0x410f699f	8.963286
48	0x40262995	2.596288
49	0x40fbd1d8	7.8693657
50	0xc15978c1	-13.591981
51	0xc0f74215	-7.7268167
52	0x3f0f0954	0.5587361
53	0x3f9bb1f1	1.2163678
54	0x40f4e8b5	7.6534066
55	0xc1901888	-18.011978
56	0x40fcd15e	7.9005575
57	0x40fb2274	7.8479557
58	0xbfea3d72	-1.8300002
59	0xc168bb0b	-14.545665
60	0x40005038	2.0048962
61	0x40817b1f	4.0462794
62	0xc16e67ea	-14.90037
63	0x418fa7bf	17.956907
64	0x40e48968	7.141773
65	0x40a2f9d5	5.092997
66	0xc0e183dd	-7.0473466
67	0x4137f477	11.497184
68	0xc0f12182	-7.5353403
69	0x4026069d	2.5941536
70	0x4129eee9	10.620828
71	0xc085db99	-4.1830564
72	0x409faebe	4.990081
73	0xc101b14d	-8.105786
74	0xc19431e9	-18.52437
75	0xc1b50855	-22.629068
76	0x40697c45	3.6482098
77	0xc11bb6b2	-9.732103
78	0xc03875a3	-2.88218
79	0xc08db766	-4.4286375
80	0xc0830744	-4.094637
81	0x418b55c8	17.416885
82	0xc179e44a	-15.618235
83	0x4002025b	2.0313938
84	0x410f5832	8.959032
85	0xc0da9b0f	-6.831428
86	0xc0dc58fa	-6.8858614
87	0xc0917a7d	-4.546202
88	0x40707ea1	3.7577288
89	0x3d99391c	0.07481596
90	0x4083a31c	4.113661
91	0x40c577ba	6.170865
92	0xc15826e5	-13.509496
93	0xc11998de	-9.599821
94	0x40bb1380	5.8461304
95	0xc18556a3	-16.667303
96	0x41231c42	10.194399
97	0x40c5b649	6.1785016
98	0xbfc7bc9c	-1.5604434
99	0xc09bf3c3	-4.873506
100	0xc18d954c	-17.697899
101	0xc09ea91c	-4.958143
102	0xc0f03be7	-7.5073123
103	0x3f2e30fc	0.68043494
104	0xc164542d	-14.270551
105	0x419e58bc	19.793327
106	0xc15bfd5b	-13.749354
107	0xc037655f	-2.8655622
108	0xc092972d	-4.580954
109	0x41917158	18.180344
110	0x3e96bdbd	0.29441634
111	0xbf4000ea	-0.75001395
112	0xc102b762	-8.169771
113	0xc0d9c7eb	-6.805654
114	0x413d5007	11.832038
115	0xc06b85ea	-3.6800485
116	0xc0b11844	-5.534212
117	0xc034b30a	-2.8234277
118	0x418ca882	17.58228
119	0x418ac494	17.345985
120	0x40a3df6c	5.121023
121	0x3f0e5dfb	0.5561215
122	0xc1122872	-9.134874
123	0x3f936831	1.1516172
124	0xc0906ec6	-4.513522
125	0xbf24e5db	-0.6441323
126	0xc07449b5	-3.8169987
127	0x3fc1b246	1.513253
128	0xbfd0a035	-1.6298891
129	0xc1092986	-8.572638
130	0xc0adb160	-5.427902
131	0x3f8e84de	1.1134298
132	0x413041cb	11.016063
133	0xc0825669	-4.073048
134	0x4094c8e4	4.649523
135	0xbf7c84ea	-0.9864031
136	0x3fc0b27c	1.5054469
137	0x40f5060c	7.656988
138	0x4118f9f4	9.561024
139	0x400ac667	2.1683595
140	0x40d93946	6.7882414
141	0x4156c884	13.423954
142	0xbf39f12d	-0.7263363
143	0x410f555f	8.958343
144	0xc1419854	-12.0996895
145	0x412deb14	10.869892
146	0xc122ee61	-10.183198
147	0x412d5d0d	10.835217
148	0x4062dd54	3.5447588
149	0x4115564c	9.333569
150	0xc1b4d2b2	-22.602879
151	0xc17b8d56	-15.722006
152	0x4002bca9	2.042765
153	0x4047e02c	3.1230574
154	0xc18b1bea	-17.38863
155	0x40dc6889	6.8877606
156	0x40c109c6	6.032443
157	0x4076b4e5	3.854791
158	0x41985b25	19.044504
159	0x4028dd42	2.6385045
160	0xc1224aac	-10.14323
161	0x41654e3f	14.331603
162	0xc18079ab	-16.059408
163	0x401dec4b	2.4675472
164	0x4139057d	11.56384
165	0x415b2e1d	13.698758
166	0xc16dcbfe	-14.862303
167	0xc147a3d7	-12.4775
168	0x4002e7cb	2.0453975
169	0xbe052981	-0.13004114
170	0xc1a134e4	-20.150826
171	0xbd543bf6	-0.051814996
172	0xc16851f2	-14.520006
173	0xc13d6ac4	-11.838566
174	0xc05edc06	-3.4821792
175	0xc1884961	-17.03583
176	0xc05c1d10	-3.4392738
177	0x413f6ebb	11.964534
178	0x4126f0a4	10.43375
179	0x3faaa02f	1.3330134
180	0x41642171	14.258164
181	0x4156cc80	13.424927
182	0xc0d97418	-6.7954216
183	0x40445b43	3.0680702
184	0xc16c60ea	-14.773661
185	0xc0d3055b	-6.5944037
186	0x415a1d61	13.632173
187	0xc1c0eae3	-24.11469
188	0xc149fc4d	-12.624097
189	0x3feafe90	1.8358936
190	0xc07f1148	-3.9854298
191	0x40df6a5b	6.981733
192	0xc17bff64	-15.749851
193	0x413bd899	11.74038
194	0x40c57dc5	6.1716027
195	0xc1025a82	-8.147097
196	0x410265c8	8.149849
197	0x40a6242a	5.1919146
198	0x3f66c7c5	0.90148574
199	0xc1015c6e	-8.085066
200	0xc14b185a	-12.693445
201	0xc09923f5	-4.7856393
202	0xc03ae270	-2.9200706
203	0xc17a2761	-15.634614
204	0xc1856dfb	-16.678701
205	0xbfb00c00	-1.3753662
206	0xc12f37af	-10.951095
207	0xc0e1d37b	-7.0570655
208	0x412c42c3	10.766299
209	0x40f7873b	7.7352576
210	0x4091f920	4.561661
211	0xc14dd9e0	-12.865692
212	0x404219c9	3.0328238
213	0x411e06d3	9.876666
214	0x41268ab1	10.40886
215	0x4139245f	11.57138
216	0xc1ac6e11	-21.553743
217	0x4023b18a	2.5577111
218	0x41b1e732	22.237888
219	0x40966e9d	4.7010026
220	0xc11ed888	-9.927864
221	0xc0bf0635	-5.9695077
222	0xc11b51d5	-9.707479
223	0x405cc378	3.4494305
224	0xc07222a2	-3.7833638
225	0x3f51c7f5	0.81945735
226	0x40b99c1c	5.8003063
227	0xc100a5b7	-8.040458
228	0xc08612b8	-4.189785
229	0xc03cb724	-2.948678
230	0xc1796113	-15.5862
231	0x41040d4f	8.253249
232	0x4025b1ea	2.588984
233	0x416cd212	14.801287
234	0xc116da97	-9.428367
235	0xc13f14d9	-11.94259
236	0xc090c2c7	-4.5237765
237	0xc199d212	-19.227573
238	0x3fa99eda	1.3251603
239	0xc032ba2c	-2.792613
240	0x4060471b	3.50434
241	0xc1547307	-13.278083
242	0xc0850d3f	-4.157867
243	0x4081ee09	4.060307
244	0x40283dd1	2.628773
245	0xc172fa6d	-15.186139
246	0x4138b7b0	11.544846
247	0x417f4564	15.954441
248	0x416609f7	14.377433
249	0xc10ee689	-8.931283
250	0xbf154aaa	-0.58317053
251	0x41ba257e	23.268307
252	0x41173de6	9.452612
253	0x41770e05	15.440923
254	0xc1843d5f	-16.529966
255	0xbf3ae2f8	-0.73002577

dense_1/bias:0 f4 [32]
0	0xc0dc5e6e	-6.886527
1	0x40949fdf	4.6445155
2	0xc0d2593c	-6.573393
3	0xc03368bd	-2.8032677
4	0x414ecdf7	12.925284
5	0x417b0dbe	15.690855
6	0xc102bd0d	-8.171155
7	0xbe85b942	-0.26117903
8	0xc05807ce	-3.3754764
9	0xc00351be	-2.0518641
10	0x3f55f2b3	0.83573455
11	0xbff51218	-1.9146147
12	0xbffadcf8	-1.9598684
13	0xc0fb96e1	-7.862168
14	0xc18c8b9c	-17.568169
15	0xbf0bb842	-0.5457803
16	0x3f8b671d	1.0890843
17	0x40086217	2.130987
18	0xc16199d5	-14.100057
19	0xc0241ee7	-2.5643861
20	0xc088a41d	-4.2700334
21	0x4103bb10	8.23317
22	0x4081fb93	4.0619597
23	0x3f36e34c	0.7144058
24	0xc11ebcf4	-9.921131
25	0xbe026b8a	-0.12736335
26	0xc0ecf32b	-7.4046836
27	0x404ee9bd	3.2330163
28	0x4121a79b	10.103419
29	0x4125f27a	10.371698
30	0xc18b39fe	-17.403316
31	0xc1562831	-13.384812

conv2d_3/kernel:0 f4 [32, 32, 3, 3]
0	0x40d9d27e	6.806945
1	0x40af43ea	5.4770403
2	0x414f0580	12.938843
3	0xc13ac221	-11.672395
4	0x40ad229d	5.4104753
5	0x4193693d	18.426386
6	0xc0bfa85f	-5.989303
7	0x3fdc922d	1.7232109
8	0x4136b7bc	11.419857
9	0xc019ef79	-2.4052413
10	0x3f661be8	0.8988633
11	0xc055cd5e	-3.3406596
12	0x41520ab1	13.12761
13	0x410f51a9	8.957437
14	0xc059bde4	-3.402215
15	0xc0ddf415	-6.936045
16	0x3e50a979	0.20377149
17	0x4118be01	9.546388
18	0x40977bea	4.733876
19	0xc154db9f	-13.303618
20	0xbefc2ad6	-0.4925143
21	0x40a6b37f	5.209411
22	0x403a8cba	2.9148393
23	0x40f38155	7.6095376
24	0x419ac13a	19.344349
25	0xc14b4a9e	-12.705717
26	0xc12424a7	-10.258948
27	0xc188db63	-17.107122
28	0x3fc00d6b	1.5004095
29	0xc0d84ed5	-6.759623
30	0x4039132a	2.8917947
31	0xc10f7dad	-8.968183
32	0xbfc05995	-1.5027338
33	0x408e2636	4.4421644
34	0x3f0e179c	0.55504775
35	0xbf07fec5	-0.5312312
36	0x40da0bf5	6.8139596
37	0xc0ecaf57	-7.396404
38	0xc01000d5	-2.2500508
39	0xc1097d34	-8.593067
40	0xc07ffadf	-3.999687
41	0xbf8b66c4	-1.0890737
42	0x41729a0c	15.162609
43	0xc18786b0	-16.940765
44	0x4011707d	2.2724907
45	0xc161cbd0	-14.112259
46	0x41171958	9.443687
47	0xc169345e	-14.575285
48	0x4092f7b3	4.5927367
49	0x40d231df	6.568588
50	0xc11776aa	-9.466471
51	0xc110b4e1	-9.04416
52	0xc1534051	-13.203202
53	0x4042aaa2	3.0416646
54	0x4136342a	11.387735
55	0x40e630b0	7.1934433
56	0xc1fb0952	-31.37955
57	0xc18f642e	-17.923916
58	0x4174d946	15.303045
59	0x40e3d3ec	7.1196194
60	0xc04f3400	-3.2375488
61	0x41071c90	8.444473
62	0xc179a0ed	-15.6017885
63	0xc076158c	-3.845065
64	0xc14cb7cd	-12.794873
65	0x3fdc6dae	1.7220972
66	0x40dc60d7	6.8868213
67	0xc1eac848	-29.347794
68	0xbf00e258	-0.50345373
69	0xc08d6986	-4.4191313
70	0x40b35ae3	5.6048446
71	0x409169b2	4.5441523
72	0xc1195860	-9.584076
73	0x40bb5605	5.8542504
74	0x413207ce	11.126905
75	0x4141747f	12.090941
76	0xbea6aaed	-0.3255228
77	0xc114b4f9	-9.294183
78	0x408032c8	4.006199
79	0x3fab66cb	1.3390745
80	0x40d29605	6.580813
81	0xc1243c86	-10.264776
82	0xc0432e50	-3.0497017
83	0x410bf31f	8.746856
84	0xc110c9bd	-9.0492525
85	0xc16077c2	-14.029238
86	0xc037b053	-2.870137
87	0x40c7870d	6.2352357
88	0x40d5cd7c	6.6813335
89	0x407ca686	3.9476638
90	0x412a63ae	10.649336
91	0xc0f839fe	-7.757079
92	0x409c85c4	4.891329
93	0xc05c8fdc	-3.4462805
94	0x4125644d	10.3369875
95	0xbf74437d	-0.9541548
96	0xc04561bd	-3.0840905
97	0x408b90ed	4.361441
98	0xc0061ac9	-2.0953848
99	0x4159888a	13.595835
100	0xc14cd5d2	-12.802202
101	0xc16895fb	-14.536616
102	0x40fc82ab	7.8909507
103	0x409a5742	4.8231516
104	0xc12c07f0	-10.751938
105	0xc147c314	-12.4851265
106	0xc0b8a6f5	-5.7703805
107	0xc0a45a95	-5.1360574
108	0x3fdb8e4e	1.7152803
109	0xc199fee3	-19.249456
110	0x4132eefe	11.183348
111	0xc0da50ab	-6.822347
112	0xbf97053f	-1.1798476
113	0xc0be3e85	-5.945132
114	0x41a9ad41	21.209597
115	0xbf95bbe1	-1.1697961
116	0xc0d823a7	-6.754352
117	0xc002341d	-2.0344307
118	0xc017f1fa	-2.374144
119	0xc14ccce1	-12.800019
120	0xc1398b42	-11.5964985
121	0x40a1f43e	5.0610647
122	0x4098c00a	4.7734423
123	0x412793e4	10.473606
124	0xc0b812a9	-5.752278
125	0x3da308d9	0.07960672
126	0x4028221c	2.6270819
127	0x40804946	4.0089445
128	0x3f4ad08b	0.7922446
129	0x40a8a287	5.26984
130	0xc1172ee3	-9.448947
131	0xc05befec	-3.4365187
132	0x41459e48	12.351143
133	0xc0033b12	-2.0504804
134	0x411b0a3b	9.689998
135	0x4034aec4	2.8231668
136	0xc121ddd8	-10.116661
137	0xc0c3075a	-6.0946474
138	0xc0eabd38	-7.335598
139	0xc0f326e4	-7.5984974
140	0xc01d18c9	-2.4546378
141	0xc079cd1c	-3.903144
142	0xc0ac71be	-5.3888845
143	0x414105fe	12.063963
144	0x40dd911a	6.9239626
145	0xc11c9e5d	-9.788663
146	0x4105646e	8.337019
147	0xc102778d	-8.154187
148	0xc0c7a4fb	-6.238889
149	0xc0d1549e	-6.5415792
150	0xc1b704e5	-22.87739
151	0xc12cf37a	-10.8094425
152	0xc0549cb1	-3.3220637
153	0xbf9bc4f9	-1.2169486
154	0xc0d37c50	-6.608925
155	0xc11b9b05	-9.725347
156	0xc118ce57	-9.550376
157	0x4061dd99	3.5291502
158	0x40f8488d	7.7588563
159	0xc04b1e2a	-3.173716
160	0xc0bde3f4	-5.9340763
161	0xbfb2e361	-1.397564
162	0xc08b0255	-4.3440347
163	0x416e889e	14.908354
164	0x40a33e49	5.101353
165	0xc0354519	-2.8323424
166	0x41774a37	15.455619
167	0xc1465603	-12.395999
168	0xc108ea65	-8.557225
169	0x418cf8e2	17.621525
170	0x3f70f797	0.9412779
171	0xc13a2ee3	-11.636447
172	0xc12e9c96	-10.913229
173	0x4163b9bc	14.232845
174	0x40432bb2	3.049542
175	0xc197e892	-18.98856
176	0x40db4cfc	6.8531475
177	0x406dbcc8	3.7146473
178	0x40ae1419	5.4399533
179	0xc169d590	-14.614639
180	0xc0c6186f	-6.1904826
181	0x4160ca2c	14.049358
182	0xc147dd66	-12.491552
183	0xc10e94e2	-8.911348
184	0xbfe9c8cc	-1.8264403
185	0x3ef24094	0.47314894
186	0x3ffc7319	1.9722625
187	0xc18315a6	-16.38557
188	0xc0fdf831	-7.936547
189	0x41005570	8.020859
190	0xc1089e28	-8.538612
191	0x415d70c0	13.840027
192	0x4125df24	10.366978
193	0xc1175a2d	-9.459516
194	0x40f4cf80	7.6503296
195	0x40c710b5	6.2207894
196	0x419d8c03	19.693365
197	0x40e41f7b	7.128843
198	0xc158b873	-13.545032
199	0xc10c7bfc	-8.78027
200	0x41940c68	18.506058
201	0x412d094a	10.814768
202	0x40dbc3ff	6.8676753
203	0x410edcfc	8.928951
204	0xc08c5d5d	-4.386397
205	0xc118e116	-9.554953
206	0x3e607cb1	0.21922566
207	0x3d445c21	0.047939423
208	0x401884ec	2.383113
209	0xc0cc0318	-6.3753777
210	0x4050816d	3.2578995
211	0xc16392ec	-14.22337
212	0xc0fb129f	-7.846023
213	0x41e54781	28.659914
214	0x4046cdaf	3.106304
215	0x40c3d499	6.119702
216	0x4101541c	8.0830345
217	0xc0fdcf7a	-7.9315767
218	0xc089d092	-4.3067102
219	0xc1b2284e	-22.26968
220	0x412bd2b2	10.738939
221	0xc032e86b	-2.7954357
222	0x40e68400	7.2036133
223	0xbfe575e2	-1.79266
224	0x4053a39b	3.3068607
225	0x41471df6	12.444815
226	0x40011d57	2.0174158
227	0x40585a15	3.3804982
228	0xc138076a	-11.50181
229	0x40213ee8	2.5194645
230	0x412c8f9a	10.785059
231	0x40b26722	5.5750895
232	0xc1048ecf	-8.284865
233	0xc02bab22	-2.68232
234	0x41bd2ef1	23.64792
235	0x418ec0d1	17.844149
236	0xc10d2e21	-8.823762
237	0x40c58674	6.1726627
238	0xc0ac8a1f	-5.3918605
239	0xc14a8c8c	-12.659313
240	0x41322628	11.1343155
241	0xc09e8cde	-4.9546957
242	0x40303c5c	2.753684
243	0x40dc19fd	6.8781724
244	0x402dd8fb	2.7163684
245	0x4089a8c5	4.3018517
246	0xbe904d94	-0.28184187
247	0xc05c39dc	-3.4410315
248	0xc0426491	-3.037388
249	0x3fb8b9e6	1.4431732
250	0xc0198fd5	-2.3994038
251	0xc0aefa95	-5.4680886
252	0xbfcfb6f7	-1.6227711
253	0xc0484783	-3.1293647
254	0xc02819f6	-2.6265845
255	0xc1a32cab	-20.39681

conv2d_3/bias:0 f4 [32]
0	0x40ed74a0	7.4204865
1	0xc0fdadc6	-7.9274626
2	0xc08d9eea	-4.4256487
3	0x3fd27004	1.6440434
4	0x40d97ece	6.796729
5	0x4053eb05	3.3112195
6	0x3e5b3b69	0.21409382
7	0xc15df68e	-13.872694
8	0x3fe39840	1.7780838
9	0xc128f5cb	-10.560008
10	0xc16e5930	-14.896774
11	0xc159f43c	-13.622128
12	0x41553d1d	13.32742
13	0x3f9d94e6	1.2311065
14	0x416b12c4	14.692081
15	0x41222078	10.132927
16	0x4084246f	4.1294475
17	0xc0a03e15	-5.0075784
18	0xc0c3963a	-6.112088
19	0x41828e31	16.31943
20	0xc11f5284	-9.957645
21	0xbf8126a6	-1.008992
22	0xc1b679ce	-22.809475
23	0x40ff5a61	7.9797826
24	0x3fad84ab	1.3556112
25	0xc17c118e	-15.754286
26	0x41485838	12.521538
27	0xc19edbed	-19.857386
28	0x3ff99f24	1.9501691
29	0x3ff44293	1.9082817
30	0xc18ff9b5	-17.996927
31	0x40ce96c1	6.4559026

conv2d_2/kernel:0 f4 [32, 2, 3, 3]
0	0x4127cd6d	10.487653
1	0x410fc9f8	8.986809
2	0xc12b6c57	-10.71395
3	0xc1b62b3d	-22.771112
4	0x416698e9	14.412332
5	0x4141a081	12.101686
6	0xc18916e7	-17.136183
7	0x40e5fbf9	7.1870084
8	0x415176c0	13.091492
9	0xc1896177	-17.17259
10	0xc12d5cca	-10.835154
11	0x405170c1	3.272507
12	0x4086efd4	4.216776
13	0x408b9f29	4.3631787
14	0x4123fcb7	10.249198
15	0x410a7ec1	8.655946
16	0xc0d778de	-6.7335043
17	0x41417279	12.090447
18	0x3f91313a	1.1343148
19	0xc0a65837	-5.1982684
20	0x3eba228c	0.36354482
21	0x3fd3a35f	1.6534232
22	0xc059c334	-3.4025393
23	0x411470ec	9.277569
24	0xc0e99e31	-7.3005605
25	0x3f653dba	0.8954731
26	0xc072006c	-3.7812757
27	0xc1b022fb	-22.01708
28	0xc07c884a	-3.9458184
29	0xc0a61efe	-5.191283
30	0xc07498c5	-3.8218243
31	0x408e7095	4.451243
32	0xc0b19e47	-5.550571
33	0x40303ee8	2.7538395
34	0xc155763c	-13.341366
35	0x40438080	3.054718
36	0x412921b7	10.570731
37	0xc0b66910	-5.700325
38	0xc10e8fdb	-8.910121
39	0x408a24e2	4.3170023
40	0x40dd6b96	6.919383
41	0x40e461fd	7.1369615
42	0x40cfa716	6.489146
43	0xc12d95f9	-10.849114
44	0x4185d74f	16.730131
45	0xc0199ab7	-2.400068
46	0xc05adb88	-3.4196491
47	0xc104c7a5	-8.298741
48	0x407ca69e	3.9476695
49	0x4102b978	8.17028
50	0x412dbac4	10.858097
51	0xc19c0373	-19.501684
52	0x416f049a	14.938623
53	0x3e56c377	0.20973001
54	0x4201b340	32.42505
55	0x415500d4	13.312702
56	0x413df77c	11.872921
57	0xc038a0e8	-2.884821
58	0xc143f38e	-12.246962
59	0xc01ffe1e	-2.499885
60	0x410be9b7	8.744559
61	0x40d68c1a	6.7046022
62	0x410557f5	8.333974
63	0xbffa2d4b	-1.9545072
64	0xc0c07c33	-6.015161
65	0x415ba465	13.727635
66	0x40ac2be2	5.380357
67	0x3ee00597	0.43754265
68	0xbfcb603e	-1.5888746
69	0x4154b446	13.294012
70	0xc0673718	-3.6127377
71	0x4085d970	4.1827927
72	0x40b8348d	5.756415
73	0xbfd2da91	-1.6472951
74	0xc0c0afbc	-6.021452
75	0x3f023255	0.5085805
76	0x40b3f225	5.6233087
77	0x414bf5ed	12.74754
78	0xc01de8e1	-2.4673388
79	0x4149847d	12.594846
80	0xc193ac0c	-18.459007
81	0xc067d5c1	-3.6224215
82	0x40b93ba9	5.7885327
83	0x4153aaa2	13.229158
84	0x4054c680	3.3246155
85	0xc122c22b	-10.172404
86	0xbf60641b	-0.8765275
87	0xc0c3c8ca	-6.1182604
88	0xc15f666c	-13.962505
89	0x418053e6	16.040966
90	0x4098812f	4.7657695
91	0x3f194f6b	0.5988681
92	0xc0f77626	-7.7331724
93	0xc023ff00	-2.562439
94	0x414891af	12.535567
95	0xc0930d21	-4.5953526
96	0x4096a84d	4.7080445
97	0xc08c91a7	-4.39278
98	0xc14dbdc1	-12.858827
99	0x41025126	8.144812
100	0x40eb55a8	7.354206
101	0x4154e781	13.3065195
102	0x411a5e4f	9.648025
103	0x4185b322	16.712467
104	0xc1717961	-15.0921335
105	0xc1078b39	-8.47149
106	0x41397b6f	11.592635
107	0x4026e146	2.6074996
108	0xbe6ce715	-0.23135026
109	0xc10850b2	-8.519701
110	0x40905e6d	4.5115266
111	0x403424f1	2.8147547
112	0xc1128579	-9.157586
113	0xc0976749	-4.731358
114	0x413bb78a	11.732309
115	0xc138ee82	-11.558229
116	0xc1a410e2	-20.508244
117	0x418e7934	17.809181
118	0x41c0fb8c	24.122826
119	0x40c92eb2	6.28695
120	0x41098117	8.594016
121	0xc11d60b3	-9.836108
122	0x4101d52d	8.114545
123	0x40a3154a	5.096349
124	0xbffdc675	-1.9826189
125	0x40b21190	5.564644
126	0x417f5c90	15.960098
127	0x40e0b1d8	7.0217094
128	0xbfcde166	-1.6084411
129	0x401e3744	2.4721231
130	0xc0124e08	-2.2860126
131	0x40ae6416	5.4497175
132	0x4007e121	2.1231158
133	0xc18c2d69	-17.522173
134	0x3f858ef1	1.0434247
135	0xc059b0c8	-3.4014149
136	0x3fc0fbe4	1.5076871
137	0x406a3d3e	3.659988
138	0xc134acde	-11.292204
139	0xc09e8df7	-4.9548297
140	0x411b5774	9.708851
141	0xc05024a4	-3.2522364
142	0x4154406e	13.26573
143	0x40a53969	5.163258
144	0xc0f0612c	-7.511862
145	0xc09f4fa5	-4.978472
146	0xc03d6432	-2.9592404
147	0xc089f90a	-4.3116503
148	0x40f47b28	7.6400337
149	0x410c2ebe	8.761412
150	0xc0c2e116	-6.0899763
151	0xbf0d84b5	-0.5528062
152	0xc0643352	-3.5656323
153	0x4108ca3e	8.549376
154	0x4130a1d9	11.039514
155	0x41144c65	9.268651
156	0x411140c5	9.078313
157	0x3fd085f6	1.6290882
158	0x3d1c5bf9	0.03817365
159	0xc01ee0de	-2.4824748
160	0x3fb00d92	1.3754141
161	0x406a0c85	3.6570141
162	0xc085dfad	-4.183554
163	0x3fd3d705	1.6549994
164	0xc0b75f00	-5.7303467
165	0x409d367f	4.9129024
166	0x4081bf19	4.0545774
167	0xc05495a4	-3.3216333
168	0xc0a631e6	-5.193591
169	0x40394727	2.8949678
170	0x417eb9f3	15.920398
171	0xc1313d96	-11.077536
172	0x40f2a065	7.5820794
173	0xc0e83cde	-7.25743
174	0xbe73f99b	-0.23825686
175	0xbec70314	-0.38869536
176	0x4113c9e0	9.236786
177	0xc149ce18	-12.612816
178	0x414d6566	12.8372555
179	0xc197cb15	-18.974161
180	0x417fdbd9	15.991174
181	0xc1241aab	-10.256511
182	0x40ca3bb0	6.319786
183	0xc1878cc8	-16.94374
184	0xc158384b	-13.513743
185	0xc1a409ae	-20.504726
186	0xc03145aa	-2.769877
187	0xc1029890	-8.162247
188	0xc0988e76	-4.7673903
189	0xbfcf7d98	-1.6210203
190	0x3f63154a	0.8870436
191	0x41b5af72	22.710667
192	0x4025d6d3	2.5912368
193	0x3f558d89	0.8341909
194	0x405b99e7	3.4312685
195	0x4113b573	9.231799
196	0x41292522	10.571566
197	0xc0f6ea92	-7.716134
198	0x40e8b119	7.2716184
199	0x41444376	12.26647
200	0xc04e81ea	-3.2266793
201	0xc1403186	-12.012091
202	0xbf580bff	-0.84393305
203	0x40fb5b83	7.854921
204	0xc0434d03	-3.0515754
205	0xc0b481c6	-5.6408415
206	0xc0e0fe7c	-7.031065
207	0x4019ec32	2.4050412
208	0xc1e43fc2	-28.531132
209	0x415e9cfa	13.913324
210	0xc0dbed99	-6.8727536
211	0x415b9e92	13.726213
212	0xc0dbb813	-6.86622
213	0x418627d0	16.76944
214	0xc1016cbd	-8.089047
215	0x40575817	3.3647516
216	0xc0ef7473	-7.482965
217	0x3e9f76fb	0.31145462
218	0x40912590	4.5358353
219	0xc0961831	-4.690453
220	0xc13de7ed	-11.8691225
221	0xbfbc25ff	-1.4699095
222	0xc10d1a60	-8.818939
223	0x4132d1e8	11.176247
224	0x3fe44f7a	1.7836754
225	0xbf9ebcb6	-1.240134
226	0xc1268be0	-10.409149
227	0x3fa00223	1.2500652
228	0x40de0475	6.938044
229	0xc1a5fffc	-20.749992
230	0x4058309b	3.3779666
231	0x4021f63f	2.5306547
232	0x41383017	11.511741
233	0x420212ea	32.51847
234	0x415c4812	13.767595
235	0x40d2f5f8	6.5925255
236	0x4149c702	12.611086
237	0xc0d129f8	-6.536373
238	0xc198af30	-19.08554
239	0xc1171da5	-9.444737
240	0xbfd5dbf5	-1.670775
241	0xc0e9cb82	-7.3060923
242	0xc12f50e8	-10.9572525
243	0x41802ae4	16.020943
244	0x40ec37a4	7.381792
245	0x417293c1	15.161073
246	0x3fd2a77d	1.6457363
247	0x401bbdfc	2.4334707
248	0x4066a935	3.6040776
249	0xc09bc504	-4.8677998
250	0x408ca7b9	4.395474
251	0x4019202e	2.392589
252	0xc1a91b13	-21.13822
253	0xc09fbba9	-4.9916577
254	0x40bb7de5	5.859118
255	0x40ea0aef	7.3138347

conv2d_2/bias:0 f4 [32]
0	0xc14bf83a	-12.748102
1	0xc15f8ec0	-13.972351
2	0x4167ade6	14.479956
3	0xc13c3034	-11.761768
4	0xc0b151fd	-5.5412583
5	0x4137bf9a	11.484278
6	0x40e9d1c8	7.306858
7	0x41923cc2	18.279667
8	0xbf88169e	-1.0631902
9	0xc146b680	-12.419556
10	0xc156b9c1	-13.42035
11	0xc172c5fe	-15.173338
12	0xbf86d925	-1.0535017
13	0xc14481c6	-12.281683
14	0x41275da9	10.460366
15	0xc0b70f78	-5.7206383
16	0xc0f827d5	-7.7548623
17	0xc14d0136	-12.812796
18	0x4089bfea	4.304677
19	0x418c6eab	17.554037
20	0x40db2e01	6.8493657
21	0xbff1b08d	-1.8882004
22	0xc0a2c553	-5.0865874
23	0x41400273	12.000598
24	0x41086700	8.5251465
25	0x41285879	10.5216
26	0x4184f176	16.6179
27	0xc11df7f5	-9.873036
28	0x4045c83a	3.0903459
29	0x4140e4c9	12.055856
30	0x418328c2	16.394901
31	0xc0bde507	-5.9342074
