PythonScripts/test.onnx (onnx, 107099 bytes, 7 tensors)

output/kernel:0 f4 [32, 1]
0	0xbbb38240	-0.0054781735
1	0xbeaf1004	-0.34191906
2	0x3de07598	0.10959929
3	0x3eb4d3d6	0.35317868
4	0x3d8208c8	0.06349331
5	0xbc95cf00	-0.018287182
6	0x3c779f60	0.015113682
7	0xbd940684	-0.07227805
8	0x3e0d3260	0.13788748
9	0xbd98117c	-0.0742521
10	0xbe005f00	-0.1253624
11	0x3ec94fa0	0.39318562
12	0xbc1d48a0	-0.009599835
13	0x3cc56ea0	0.024100602
14	0x3e14b7a8	0.14523184
15	0x3ea94efa	0.33068067
16	0x3e4cee7c	0.2001285
17	0xbe76795e	-0.24069735
18	0x3ec30044	0.3808614
19	0x3e4fbf08	0.20287716
20	0x3e7a01b0	0.24414706
21	0x3e951512	0.29117638
22	0xbed41d10	-0.41428423
23	0x3e192638	0.14955986
24	0x3eb31bf6	0.3498227
25	0x3cf3a410	0.029741317
26	0xbebd1528	-0.36930203
27	0x3e89caac	0.2691244
28	0x3ec3846e	0.38186973
29	0x3d39df00	0.045378685
30	0x3ec8f0b2	0.39246136
31	0xbea2fb38	-0.3183229

dense_8/kernel:0 f4 [512, 32]
0	0x3d4ea028	0.050445706
1	0xbcd533ca	-0.026025672
2	0x3e06488c	0.13113612
3	0x3d21cb74	0.03950067
4	0xbd352938	-0.044228762
5	0x3d2ccfd5	0.04219039
6	0xbdad815e	-0.084719405
7	0x3dc8431d	0.09778426
8	0xbd6f9184	-0.058488384
9	0xbd5f862e	-0.054571323
10	0x3cec36e7	0.028834773
11	0x3b424f7a	0.0029649423
12	0xbcffd106	-0.0312276
13	0x3da56109	0.080751486
14	0x3dd8a22b	0.10577806
15	0x3cbd4fcf	0.023109345
16	0x3d8e8fec	0.06961045
17	0x3d40817d	0.04699849
18	0x3d65c98a	0.056100406
19	0xbd96e7c0	-0.073684216
20	0x3cdcf0d5	0.026970306
21	0xbd3245f1	-0.043523733
22	0xbb0e16f6	-0.0021681166
23	0xbd31877b	-0.043342095
24	0x3bab8fe6	0.00523566
25	0x3ca70576	0.020388346
26	0x3dfda5c0	0.1238513
27	0xbe010601	-0.12599947
28	0xbd057f4a	-0.032592095
29	0x3d61a844	0.05509211
30	0x3da7695c	0.081743926
31	0x3d163f05	0.036681194
32	0x3d520d7c	0.05128239
33	0xbde998c8	-0.11406094
34	0x3d97f608	0.074199736
35	0xbc32137b	-0.010868902
36	0x3bd03d61	0.006354973
37	0x3d59148a	0.052998103
38	0xbd3c8b32	-0.046031184
39	0x3d2d289d	0.04227506
40	0x3da7af2d	0.08187709
41	0xbd6ffa3f	-0.058588263
42	0x3d222448	0.03958538
43	0x3dfd9fdc	0.123840064
44	0xbd562957	-0.05228552
45	0x3d18fc0e	0.037349753
46	0xbd521aac	-0.051294968
47	0x3d897871	0.067124255
48	0xbcb119ce	-0.02161875
49	0x3dde201c	0.10845968
50	0x3d63b8d2	0.05559618
51	0x3db63cbb	0.08898302
52	0x3d52754f	0.051381405
53	0xbd857481	-0.06516362
54	0xbd47e942	-0.048806436
55	0xbdc30c4e	-0.09523831
56	0x3a3525eb	0.0006910252
57	0x3d347fe1	0.044067267
58	0xb898b5ff	-7.281824e-05
59	0x3d73e55b	0.059544902
60	0x3bd51cff	0.0065037007
61	0x3d6cbfae	0.057799987
62	0xbd963803	-0.07334902
63	0x3d2eef15	0.042708475
64	0x3c469441	0.012120307
65	0xbda7e00f	-0.08197033
66	0x3c339c84	0.010962609
67	0xbb9029b5	-0.004399503
68	0x3d97763c	0.07395598
69	0x3d611880	0.054955006
70	0x3ca9293c	0.020649545
71	0x3ccbc6a8	0.024875
72	0x3c58a6de	0.013223378
73	0xbd90d669	-0.070721455
74	0xbc268da0	-0.010165602
75	0x3d4343b7	0.047672
76	0x3b8c75a5	0.0042864853
77	0xbd2f5971	-0.042809907
78	0xbd24dfe0	-0.040252566
79	0x3b824f1a	0.003976715
80	0x3cd4a6ca	0.025958437
81	0xbd89ac4c	-0.06722316
82	0x3b48c7fa	0.0030636773
83	0x3c606bf4	0.013697613
84	0x3c51585a	0.012777412
85	0x3d233bcc	0.03985195
86	0x3d2ee69e	0.042700402
87	0x3daaea08	0.08345419
88	0x3d9a05c9	0.07520635
89	0xbcdf2630	-0.027239889
90	0x3db930c5	0.09042505
91	0xbc54d66c	-0.012990575
92	0x3d89cfa1	0.06729055
93	0xbd83b3fc	-0.06430814
94	0xbdff376c	-0.12461743
95	0xbdbaa3eb	-0.09113296
96	0xbd0f7354	-0.035022095
97	0xbd269749	-0.04067162
98	0x3c9f7447	0.019464625
99	0x3d191cb9	0.037380908
100	0xbc7cadcf	-0.015422299
101	0x3c24179d	0.0100153955
102	0x3c0530d5	0.008129318
103	0x3db5f66a	0.088848904
104	0xbbb6c7b6	-0.0055780066
105	0xbd5dac12	-0.054119177
106	0xbd7274d8	-0.059193462
107	0x3e009276	0.1255587
108	0x3c9c0ab4	0.019048072
109	0xbca5e540	-0.020250916
110	0x3c977be5	0.018491695
111	0xbd1c89ad	-0.038217235
112	0xbd9b49d0	-0.07582438
113	0xbba25e30	-0.0049550757
114	0x3d6f58e1	0.05843437
115	0x3dde1bcb	0.10845145
116	0x3dc9c992	0.098528996
117	0x3dfe44c2	0.12415458
118	0x3d89630c	0.06708345
119	0x3bb44f52	0.00550262
120	0x3d626b72	0.05527825
121	0xbd73be65	-0.059507746
122	0x3c2f211c	0.010689046
123	0x3c159f33	0.009132194
124	0x3bdab3bc	0.006674258
125	0xbcddeea9	-0.027091341
126	0x3d388842	0.04505182
127	0xbd47e0b3	-0.048798274
128	0xbd924fcd	-0.07144127
129	0x3c0b0ae5	0.008486484
130	0xbd1f1155	-0.03883489
131	0x3ced306a	0.02895375
132	0xbdd694d9	-0.10477609
133	0x3ca7f383	0.020501858
134	0xbce5599d	-0.027996833
135	0x3ddf70e5	0.10910205
136	0x3bf73042	0.0075435946
137	0x3da5e310	0.08099949
138	0xbdda9449	-0.106728144
139	0x3d12194a	0.03566865
140	0xbd89ac50	-0.06722319
141	0x3db02822	0.08601405
142	0x3e0e93d6	0.13923582
143	0xbb4565c2	-0.0030120467
144	0x3cbe736a	0.023248393
145	0xbd622c8d	-0.05521827
146	0xb95b4dfe	-0.00020914522
147	0x3de57b44	0.11205152
148	0xbbf23689	-0.007391755
149	0xbcbf51c7	-0.023354424
150	0xbc297ddc	-0.010344949
151	0x3cdb4223	0.026764935
152	0xbc5a5aa3	-0.013327274
153	0x3cb12d6d	0.021628106
154	0xbdc90dc9	-0.098170824
155	0x3de4ea2f	0.111774795
156	0xbb918720	-0.004441157
157	0xbdd6abff	-0.104820244
158	0xbdacacfd	-0.084314324
159	0x3de1f296	0.11032598
160	0x3d342bd0	0.043987095
161	0xbc9e2411	-0.019304307
162	0x3cdb6cc1	0.026785256
163	0xbd5aeb22	-0.053446896
164	0xbd5f6ba9	-0.054546032
165	0x3cfef86b	0.031124314
166	0x3d456fbf	0.048202273
167	0x3de368a9	0.11103947
168	0x3d2b5064	0.041824713
169	0xbe039480	-0.12849617
170	0xbc703b72	-0.01466261
171	0xbce6abd3	-0.028158104
172	0xbd1c9060	-0.038223624
173	0x3b1d553f	0.002400711
174	0x3db66eab	0.08907827
175	0xbcbe3551	-0.023218783
176	0x3dd98d2e	0.10622631
177	0x3d830d71	0.06399048
178	0x3d2e9dfa	0.042631127
179	0x3c6c4274	0.014420141
180	0xbd04f9da	-0.03246484
181	0xbca9cba5	-0.020726988
182	0x3cb58acb	0.022160908
183	0x3c4514b8	0.0120288655
184	0x3d27b628	0.040945202
185	0xbd8b9d1e	-0.06817077
186	0x3d98f46f	0.07468497
187	0xbd670fc1	-0.05641151
188	0x3cb4de7d	0.022078747
189	0x3d81341e	0.06308769
190	0x3d10122c	0.03517358
191	0xbd6dee2f	-0.058088478
192	0xbc43fade	-0.011961667
193	0x3c83e9e6	0.016102742
194	0xbcb51dd3	-0.022108948
195	0x3d0ca505	0.034337062
196	0xbcc7e189	-0.024399536
197	0x3d5d17da	0.053977825
198	0xbd05d26b	-0.032671373
199	0xbca4fbb0	-0.020139545
200	0xbcf8015f	-0.030274091
201	0xbdba2521	-0.09089113
202	0x3d01d1b3	0.031694125
203	0x3d402a5c	0.046915397
204	0xbc9e5ee5	-0.019332359
205	0xbc0eda30	-0.008719012
206	0x3d12c7a1	0.035834912
207	0x3c99ae48	0.018759862
208	0xbcae3cca	-0.02126922
209	0xbdddc8d6	-0.10829322
210	0xb939562c	-0.00017675076
211	0x3d7a04d9	0.06103978
212	0xb9a088ab	-0.00030619404
213	0x3c41e9f5	0.011835565
214	0xbd79e40c	-0.061008498
215	0xbd6dc05c	-0.058044776
216	0xbcf87db2	-0.030333374
217	0xbe0877b5	-0.13326915
218	0xbde13bdb	-0.10997745
219	0x3d812327	0.06305533
220	0x3d93d383	0.07218077
221	0x3d358da6	0.04432454
222	0x3cf11686	0.029429685
223	0xbddb4480	-0.10706425
224	0x3d86e973	0.06587496
225	0x3c3a29c4	0.011362497
226	0x3cd3aca0	0.02583915
227	0xbdde94f8	-0.10868257
228	0x3c728db3	0.014804292
229	0xbd7d9d7a	-0.06191776
230	0x3dc45c4e	0.09587918
231	0xbe1144a1	-0.14186336
232	0xbceef419	-0.02916913
233	0x3c56e7d3	0.013116795
234	0xbc21787b	-0.009855385
235	0xbc39f4e5	-0.011349891
236	0xbc784141	-0.0151522765
237	0xbc1a813b	-0.009430225
238	0xbd4c4672	-0.04987187
239	0x3d813d51	0.06310523
240	0x3c2f494b	0.010698627
241	0xbb5fef4b	-0.003416973
242	0xbe05fcf8	-0.13084781
243	0xbcc335db	-0.023829391
244	0x3cca65fa	0.02470683
245	0xbc64901b	-0.013950373
246	0x3d82bf24	0.063841134
247	0xbe10b795	-0.14132531
248	0x3da621dd	0.08111928
249	0xbd6f8af5	-0.05848213
250	0x3c3e66de	0.011621205
251	0xbdf9dad9	-0.12199945
252	0x3d8411cc	0.06448707
253	0xbd7e2cf6	-0.062054597
254	0x3d986c13	0.074424885
255	0x3d7297e7	0.059226897

dense_8/bias:0 f4 [32]
0	0x00000000	0.0
1	0x00000000	0.0
2	0x00000000	0.0
3	0x00000000	0.0
4	0x00000000	0.0
5	0x00000000	0.0
6	0x00000000	0.0
7	0x00000000	0.0
8	0x00000000	0.0
9	0x00000000	0.0
10	0x00000000	0.0
11	0x00000000	0.0
12	0x00000000	0.0
13	0x00000000	0.0
14	0x00000000	0.0
15	0x00000000	0.0
16	0x00000000	0.0
17	0x00000000	0.0
18	0x00000000	0.0
19	0x00000000	0.0
20	0x00000000	0.0
21	0x00000000	0.0
22	0x00000000	0.0
23	0x00000000	0.0
24	0x00000000	0.0
25	0x00000000	0.0
26	0x00000000	0.0
27	0x00000000	0.0
28	0x00000000	0.0
29	0x00000000	0.0
30	0x00000000	0.0
31	0x00000000	0.0

conv2d_17/kernel:0 f4 [32, 32, 3, 3]
0	0xbd35baf9	-0.044367764
1	0x3d92c7ac	0.07166991
2	0xbdd8d612	-0.10587706
3	0xbe0d09de	-0.13773295
4	0xbda2bd62	-0.07946278
5	0xbe41daa0	-0.18931055
6	0xbe1f31e4	-0.15546376
7	0x3e078b7d	0.13236804
8	0xbd073f24	-0.0330192
9	0xbdbc098c	-0.091815084
10	0xbe11db89	-0.14243902
11	0x3e058643	0.13039498
12	0x3d87bb00	0.06627464
13	0x3d004261	0.031313304
14	0x3e321de3	0.17394213
15	0x3de1042e	0.10987125
16	0x3d1379e3	0.036004912
17	0x3ca52c48	0.020162717
18	0xbcd97439	-0.026544677
19	0xbd42514a	-0.047440805
20	0xba0b90b3	-0.0005323991
21	0xbdb69496	-0.08915059
22	0xbe239d4f	-0.15977977
23	0xbda5e0ac	-0.080994934
24	0x3c69210c	0.01422907
25	0xbdb19607	-0.086711936
26	0xbc0cf423	-0.008603129
27	0x3cfee011	0.031112703
28	0x3e03d070	0.12872481
29	0xbdd28c4c	-0.10280666
30	0xbdc322de	-0.09528135
31	0x3c43d94f	0.011953666
32	0xbe155f2f	-0.14587091
33	0xbd98101d	-0.07424948
34	0xbe2ed677	-0.17074
35	0xbe16c2ff	-0.14722823
36	0x3d73a64a	0.059484757
37	0x3ceea180	0.029129744
38	0xbd9434e2	-0.07236649
39	0x3d23eb84	0.040019527
40	0x3df01fc2	0.11724807
41	0x3e354370	0.17701507
42	0xbe0ced2a	-0.13762346
43	0xbda72909	-0.08162124
44	0xbe379c86	-0.17930803
45	0xbc88cd06	-0.016699325
46	0x3d84d174	0.064852625
47	0x3d360465	0.044437785
48	0x3d86791f	0.06566071
49	0x3ce76593	0.028246677
50	0xbd47c1b9	-0.048768733
51	0xbd12fd67	-0.035886195
52	0xbd8df88e	-0.06932174
53	0x3d669915	0.056298334
54	0xbdf1d543	-0.118082546
55	0x3d9c4665	0.07630614
56	0x3e010525	0.12599619
57	0x3df67d5e	0.12035631
58	0xbcd8e0f4	-0.026474454
59	0x3da5b243	0.08090641
60	0xbd45aedc	-0.048262462
61	0xbd7fd7d6	-0.062461697
62	0x3e20f007	0.15716563
63	0xbddb6c14	-0.10713974
64	0x3e40bbe3	0.18821673
65	0xbc621b16	-0.013800403
66	0x3deeb7da	0.11656161
67	0x3db43376	0.08798878
68	0xbdd87077	-0.10568326
69	0x3c663556	0.014050802
70	0xbcdaf3f0	-0.026727647
71	0xbdc548fd	-0.09633062
72	0x3c2e9cfd	0.010657546
73	0x3b7ca3be	0.0038549746
74	0x3d10714e	0.035264306
75	0x3d9c8df2	0.076442614
76	0xbd10b13d	-0.035325278
77	0x3d3efc75	0.04662748
78	0x3d89133d	0.066931225
79	0xbe318d23	-0.17338996
80	0xbe40a42c	-0.18812627
81	0xbda23fc4	-0.079223186
82	0xbd43fdf2	-0.047849603
83	0xbda4df85	-0.080504455
84	0xbad325a5	-0.0016109241
85	0x3dd89e19	0.1057703
86	0x3e24ead1	0.161052
87	0x3d91a908	0.07112318
88	0x3cba84f1	0.02276847
89	0xbdea7d57	-0.11449688
90	0x3cb5563b	0.022135844
91	0xbce1aca7	-0.027548147
92	0x3e06b621	0.13155414
93	0xbb80572e	-0.0039166426
94	0x3e2d884f	0.16946529
95	0xbc47bd3d	-0.012191114
96	0x3e028188	0.12744725
97	0xbd11bac6	-0.03557851
98	0x3bf80c3c	0.007569818
99	0x3df7384f	0.12071287
100	0x3dba79fe	0.091052994
101	0x3d11d78d	0.035605956
102	0x3dce3ca3	0.10070159
103	0xbd52fd33	-0.051511
104	0x3da502c8	0.08057171
105	0x3dc2274e	0.09480153
106	0xbdda3560	-0.10654712
107	0x3d6e2db3	0.05814905
108	0x3c2b8bb0	0.010470316
109	0x3c5df98c	0.013548266
110	0xbdf77245	-0.12082342
111	0x3d4870b2	0.0489356
112	0xbe0fa3ca	-0.14027324
113	0x3ca1c2d4	0.019746222
114	0xbd69adc9	-0.0570505
115	0x3c8c521c	0.017128997
116	0xbd308667	-0.043096926
117	0xbcc0681b	-0.023487141
118	0xbda2b614	-0.07944885
119	0x3e1a87d4	0.15090877
120	0x3c7a1efc	0.015266176
121	0xbdd07e11	-0.10180295
122	0x3d44e978	0.048074216
123	0xbd77b7cf	-0.060478028
124	0xbc93eb57	-0.018056555
125	0x3da85876	0.082199976
126	0x3d345aa7	0.044031765
127	0xbe0766a2	-0.13222745
128	0xbdb76a10	-0.08955777
129	0xbdda3b09	-0.10655791
130	0x3d74eb02	0.059794433
131	0xbda340b0	-0.079713225
132	0xbc636c7b	-0.013880844
133	0xba14b198	-0.00056722155
134	0xbd45c62b	-0.04828469
135	0x3defc96b	0.11708339
136	0x3d46c87b	0.048531037
137	0x3da31cc3	0.0796447
138	0xbd8f3bde	-0.06993841
139	0x3d9b1978	0.07573217
140	0x3c960498	0.018312737
141	0x3dadf862	0.08494641
142	0x3c9ead23	0.019369667
143	0x3d04b51b	0.032399278
144	0xbd9fcf02	-0.078031555
145	0x3e126af7	0.14298616
146	0xbd411d7e	-0.047147267
147	0x3e10ec30	0.14152598
148	0xbe0d0b64	-0.13773876
149	0x3de452e6	0.11148624
150	0xbd5b8c4a	-0.053600587
151	0xbddfe5b3	-0.109324835
152	0xbda71985	-0.08159164
153	0xbe28ea47	-0.1649562
154	0xbc00d780	-0.007863879
155	0xbd9700bd	-0.07373188
156	0x3e25be69	0.16185917
157	0xbc674747	-0.014116115
158	0xbbb07e3e	-0.005386143
159	0xbe2a5e0c	-0.16637439
160	0x3d01d16f	0.031693872
161	0xbd043b4e	-0.03228312
162	0xbd8478dd	-0.06468365
163	0x3dacfa2f	0.08446156
164	0xbda7781d	-0.08177207
165	0xbd9fb85b	-0.07798835
166	0xbc29ff60	-0.010375828
167	0x3dbc2325	0.09186391
168	0x3c9ba3ca	0.018999
169	0xbdf8823d	-0.12134216
170	0xbdec1f45	-0.11529402
171	0xbe01d519	-0.12678947
172	0x39f880df	0.00047398263
173	0x3d22f735	0.039786536
174	0x3bd11139	0.006380227
175	0x3cc37a48	0.02386202
176	0xbdbbcc61	-0.091698416
177	0x3d3c1497	0.045918074
178	0x3de14f03	0.110013984
179	0xbe1819ba	-0.14853564
180	0xbd261574	-0.040547803
181	0x3da10f4d	0.078642465
182	0xbd894cf4	-0.06704131
183	0x3e120847	0.1426097
184	0xbd2189db	-0.03943811
185	0x3c132eff	0.008983373
186	0x3df3b9dd	0.11900685
187	0x3e048c92	0.12944248
188	0xb898aacf	-7.2797404e-05
189	0x3d8ef720	0.06980729
190	0xbe1ec6cc	-0.15505522
191	0x3d8fc0ac	0.07019171
192	0xbc285736	-0.010274699
193	0x3e1381ed	0.14405032
194	0x3d523c06	0.051326774
195	0xbd3d1171	-0.04615921
196	0x3d91203c	0.07086226
197	0x3db48835	0.08815042
198	0xbd808870	-0.062760234
199	0x3daab29e	0.0833485
200	0x3e330e3e	0.17485902
201	0x3d9f878d	0.07789526
202	0xbd39883e	-0.045295946
203	0x3caa56e3	0.020793384
204	0x3cbeee95	0.023307124
205	0x3bc412ac	0.005983671
206	0xbb673927	-0.0035281868
207	0xbd2268d7	-0.039650764
208	0x3d3a1a0a	0.04543499
209	0xbd765983	-0.06014396
210	0x3d9e6227	0.07733565
211	0x3e1fa7ca	0.1559135
212	0x3da7bcb3	0.081902884
213	0xbe0ebf54	-0.13940173
214	0xbe1153aa	-0.14192072
215	0x3dbe791e	0.09300445
216	0x3c335470	0.010945424
217	0xbd90ade7	-0.07064419
218	0x3cb4f5fa	0.022089947
219	0x3d0dd5ef	0.03462785
220	0x3d6b1fde	0.057403438
221	0xbd83eebf	-0.064420216
222	0xbc102dc9	-0.0087999785
223	0xbde627f5	-0.1123809
224	0xbd3060f3	-0.043061208
225	0x3db7e592	0.08979334
226	0x3e13dc68	0.14439547
227	0xbdf08654	-0.11744371
228	0x3d9abcdc	0.07555553
229	0x3d99acfc	0.07503697
230	0xbd930e66	-0.07180481
231	0x3e0e3f2c	0.13891286
232	0x3c7763a7	0.015099443
233	0x3b1f599c	0.0024314886
234	0x3e17e4a5	0.14833315
235	0xbe2fd9da	-0.17172948
236	0xbdc467c8	-0.09590107
237	0xbc7f7a76	-0.015593162
238	0xbe18e127	-0.14929639
239	0x3cd43ff3	0.0259094
240	0xbcc618ac	-0.024181686
241	0x3c9df451	0.019281538
242	0x3d1bdf43	0.038054716
243	0x3b512e6a	0.0031918534
244	0x3d854b01	0.065084465
245	0x3c215f79	0.009849423
246	0xbad05824	-0.0015895409
247	0xbe0d8400	-0.13819885
248	0xbd5cf3e3	-0.053943526
249	0x3dbb799a	0.09154053
250	0xbc2cb04a	-0.010540077
251	0xbc83bf2b	-0.016082367
252	0x3d13e2a9	0.03610483
253	0xbe10634e	-0.14100382
254	0xbe2c3d98	-0.16820371
255	0x3da92564	0.08259085

conv2d_17/bias:0 f4 [32]
0	0x00000000	0.0
1	0x00000000	0.0
2	0x00000000	0.0
3	0x00000000	0.0
4	0x00000000	0.0
5	0x00000000	0.0
6	0x00000000	0.0
7	0x00000000	0.0
8	0x00000000	0.0
9	0x00000000	0.0
10	0x00000000	0.0
11	0x00000000	0.0
12	0x00000000	0.0
13	0x00000000	0.0
14	0x00000000	0.0
15	0x00000000	0.0
16	0x00000000	0.0
17	0x00000000	0.0
18	0x00000000	0.0
19	0x00000000	0.0
20	0x00000000	0.0
21	0x00000000	0.0
22	0x00000000	0.0
23	0x00000000	0.0
24	0x00000000	0.0
25	0x00000000	0.0
26	0x00000000	0.0
27	0x00000000	0.0
28	0x00000000	0.0
29	0x00000000	0.0
30	0x00000000	0.0
31	0x00000000	0.0

conv2d_16/kernel:0 f4 [32, 2, 3, 3]
0	0x3ed9229b	0.42409214
1	0x3e146b57	0.14494072
2	0xbdcbc07a	-0.09948821
3	0xbefc4b02	-0.49275976
4	0x3e92e61c	0.28691185
5	0x3e238cc1	0.15971662
6	0xbe88a4de	-0.26688284
7	0xbd379fd6	-0.044830166
8	0x3df2cb9e	0.11855243
9	0xbec14f37	-0.3775575
10	0xbdba890a	-0.091081694
11	0x3bb36131	0.0054742326
12	0x3e966f39	0.2938173
13	0x3e599bad	0.21250792
14	0xbea6c8bd	-0.32575026
15	0xbcb4168f	-0.021983413
16	0xbd9e9553	-0.07743325
17	0xbf13c6ea	-0.57725394
18	0xbd4412b5	-0.047869403
19	0x3ed387e2	0.41314608
20	0xbe493624	-0.1964956
21	0x3c13db2a	0.009024421
22	0x3f0f5a8a	0.55997527
23	0x3ee51497	0.4474227
24	0xbebe5228	-0.37172055
25	0xbeaf6eca	-0.34264213
26	0x3d8a25cb	0.0674549
27	0xbf050a76	-0.5196909
28	0xbeacb96b	-0.33735213
29	0xbe60f11a	-0.21966973
30	0x3d831184	0.06399825
31	0x3dc4ab0d	0.09602938
32	0x3e619944	0.22031122
33	0xbf00f2b0	-0.5037031
34	0x3e02ccb7	0.12773405
35	0x3ee76ae4	0.4519874
36	0x3edafe61	0.427722
37	0xbe3262b3	-0.17420463
38	0xbec0ca0b	-0.37654147
39	0x3e981b74	0.29708445
40	0xbd962fcf	-0.073333375
41	0x3f03c763	0.51476115
42	0xbd9bcef3	-0.07607832
43	0xbe6109b6	-0.2197636
44	0xbb61407b	-0.0034370709
45	0x3eb9ff52	0.36327606
46	0xbe1cbe30	-0.15306926
47	0x3d93fbbc	0.07225749
48	0x3e07f7e3	0.13278155
49	0x3e171bab	0.14756648
50	0x3e812669	0.25224617
51	0xbe1f5ede	-0.15563533
52	0xbef5397e	-0.47895426
53	0x3e62ba96	0.2214149
54	0x3dbda8be	0.09260701
55	0x3c39d5b6	0.011342457
56	0x3ec0e028	0.37671018
57	0x3e175286	0.14777574
58	0xbf1279a3	-0.5721685
59	0xbee92922	-0.45539194
60	0xbed1973d	-0.40935698
61	0x3d8ca04e	0.06866513
62	0xbd721bb4	-0.05910845
63	0xbe2de378	-0.16981304
64	0x3ec0bf7f	0.376461
65	0x3ecf773c	0.40520656
66	0xbe97dc6e	-0.29660362
67	0xbeff831f	-0.49904725
68	0xbe5f3035	-0.21795733
69	0x3ea37438	0.31924605
70	0x3e5738d8	0.21017778
71	0x3e15e565	0.14638288
72	0xbe70d124	-0.23517281
73	0x3e4c49fc	0.19950098
74	0x3e463a41	0.1935816
75	0x3efc4b3d	0.49276152
76	0xbe216402	-0.15760806
77	0xbe38c1e4	-0.18042713
78	0xbea4f6b7	-0.32219478
79	0x3e1e84f5	0.15480407
80	0xbd29c25e	-0.04144513
81	0xbe1f77ea	-0.15573087
82	0x3f05d541	0.52278525
83	0xbf1a5f9b	-0.6030213
84	0x3ec041e6	0.37550277
85	0x3eb1bb3a	0.34713155
86	0x3e9535c5	0.29142585
87	0x3f33a925	0.7017997
88	0xbebb3365	-0.36562648
89	0x3efaaac5	0.48958412
90	0x3da9029b	0.0825245
91	0x3dca6309	0.09882171
92	0x3e01f230	0.12690043
93	0xbec1499c	-0.37751472
94	0x3c0a3339	0.008435064
95	0xbef01347	-0.46889707
96	0x3ea62c76	0.32455796
97	0xbf29dbfe	-0.66351306
98	0xbebb84b0	-0.3662467
99	0x3e03f518	0.12886465
100	0x3d94a595	0.07258145
101	0x3edfbb2a	0.43697482
102	0xbec479da	-0.38374215
103	0xbeaa0cb9	-0.33212832
104	0x3e8a083c	0.26959407
105	0xbe9c1d05	-0.3049089
106	0xbf0d1871	-0.5511542
107	0x3f2ca130	0.6743345
108	0x3dbb2e33	0.09139671
109	0x3d57dbcd	0.052699853
110	0x3cf15db7	0.029463632
111	0x3cc3f52c	0.023920618
112	0x3e0b4786	0.13601503
113	0x3f1a1571	0.60188967
114	0x3d619616	0.055074774
115	0xbe4d41de	-0.20044658
116	0x3e6c810a	0.230961
117	0xbe39ed16	-0.18156847
118	0xbec3bd48	-0.38230348
119	0x3e9ca481	0.30594257
120	0x3f150860	0.58215904
121	0x3f194800	0.5987549
122	0x3e23f1b6	0.16010174
123	0xbed14ce1	-0.40878966
124	0xbed06f13	-0.40709743
125	0xbf0af451	-0.5427905
126	0xbd325798	-0.043540567
127	0x3e79fa46	0.24411878
128	0xbf2177b3	-0.6307327
129	0xbed67f7c	-0.41894138
130	0xbe828f74	-0.2550007
131	0x3e224d12	0.15849712
132	0xbe192371	-0.14954926
133	0xbf1291a2	-0.5725347
134	0xbe6b95b0	-0.2300632
135	0x3ead1588	0.3380549
136	0xbe60cc95	-0.21953042
137	0x3ec3c7b1	0.3823829
138	0xbea757bc	-0.32684124
139	0x3e1e565d	0.15462632
140	0x3e9beede	0.3045568
141	0xbec74518	-0.38919902
142	0xbee3e020	-0.4450693
143	0x3caec83d	0.021335715
144	0xbe7c25a7	-0.24623738
145	0x3ee67f25	0.4501888
146	0xbe08ceda	-0.13360158
147	0xbd29e6f0	-0.041480005
148	0x3e766958	0.24063623
149	0xbd33e822	-0.04392255
150	0xbed4948f	-0.4151959
151	0x3e8a3856	0.26996106
152	0xbf3822ec	-0.71928287
153	0xbc07291f	-0.00824955
154	0x3eef0b92	0.46688515
155	0xbedb377b	-0.42815766
156	0xbf12f2c4	-0.5740168
157	0xbbef60a8	-0.0073052235
158	0x3d44739b	0.047961812
159	0xbc4a2051	-0.012336806
160	0x3eae2510	0.3401265
161	0x3eddf19e	0.43348402
162	0xbda3829a	-0.07983895
163	0xbefe32dd	-0.4964818
164	0x3f006d31	0.5016661
165	0xbe230a97	-0.15922008
166	0x3f2313d7	0.6370215
167	0x3d91f620	0.07127023
168	0xbe634796	-0.22195277
169	0xbe71d8f9	-0.23617925
170	0xbe9af409	-0.3026431
171	0x3edddf2b	0.43334326
172	0xbdadeae6	-0.08492069
173	0xbd756458	-0.05991015
174	0x3e4da1ee	0.20081303
175	0xbec4d418	-0.38443065
176	0xbf3c2230	-0.73489666
177	0xbe9d0d3d	-0.30674163
178	0x3eae5f24	0.34056962
179	0x3cbc8afa	0.023015488
180	0xbcec01f4	-0.028809525
181	0xbeedf649	-0.46476963
182	0xbed123f5	-0.40847746
183	0x3f02928d	0.5100487
184	0xbe6b6504	-0.22987753
185	0x3e31c385	0.17359741
186	0x3ee037d5	0.43792596
187	0x3f179736	0.59215105
188	0xbf28a3ea	-0.65875113
189	0x3eb32667	0.34990236
190	0x3edfeeed	0.43736973
191	0x3e9ac709	0.30229977
192	0xbf3ccd2f	-0.73750585
193	0x3e388e61	0.18023063
194	0xbdeb567c	-0.11491105
195	0xbe512681	-0.20424844
196	0x3d2566db	0.040381294
197	0x3ebdad03	0.3704606
198	0xbe213b47	-0.15745269
199	0xba44d423	-0.00075084175
200	0x3ed034da	0.40665323
201	0x3dd4b17a	0.103854135
202	0x3e830b51	0.2559457
203	0xbe3e44f0	-0.18580985
204	0xbd967075	-0.07345668
205	0xbe7b38bf	-0.24533366
206	0xbd056ab8	-0.032572478
207	0xbea08c7b	-0.31357178
208	0xbe99bb72	-0.30025822
209	0xbefbdf30	-0.49193716
210	0xbe065ac9	-0.1312057
211	0xbea2d3c6	-0.31802195
212	0xbee26b82	-0.44222647
213	0xbe2b44b9	-0.16725434
214	0xbdef6027	-0.116882615
215	0xbebeb697	-0.3724868
216	0xbd121fab	-0.035674732
217	0xbded5ccf	-0.115899675
218	0xbebb9ad7	-0.3664157
219	0xbf1c894e	-0.6114701
220	0x3ef5426d	0.4790224
221	0x3e43a4c4	0.19105822
222	0x3d1a6756	0.037696205
223	0xbe4a59e0	-0.19760847
224	0xbda8310d	-0.08212481
225	0xbeda637d	-0.4265403
226	0xbe01958d	-0.12654705
227	0xbd8f5a87	-0.069996886
228	0x3d95859c	0.073008746
229	0xbcf63053	-0.03005234
230	0x3e2ea0ac	0.17053479
231	0xbf0ad8c7	-0.54237026
232	0xbe695bb2	-0.22788885
233	0x3f313328	0.69218683
234	0xbdcfebc3	-0.1015239
235	0xbd3af2e8	-0.04564181
236	0xbcfbe36b	-0.03074809
237	0xbf0966b5	-0.53672343
238	0x3e2aaf69	0.16668476
239	0xbeaeb422	-0.34121805
240	0xbe0319bb	-0.12802784
241	0x3e70f39c	0.2353043
242	0xbe3086a3	-0.1723886
243	0xbf20d498	-0.6282439
244	0xbe3fa427	-0.18714963
245	0xbe168e60	-0.14702749
246	0x3dacdc60	0.08440471
247	0xbe509c52	-0.20372131
248	0x39cd651c	0.0003917598
249	0xbc80d6a1	-0.015727343
250	0xbec4388c	-0.38324392
251	0x3e53ad96	0.20671687
252	0x3d579717	0.052634325
253	0x3f14618c	0.57961345
254	0x3ea06de6	0.31333846
255	0x3da98dd8	0.08279008

conv2d_16/bias:0 f4 [32]
0	0x00000000	0.0
1	0x00000000	0.0
2	0x00000000	0.0
3	0x00000000	0.0
4	0x00000000	0.0
5	0x00000000	0.0
6	0x00000000	0.0
7	0x00000000	0.0
8	0x00000000	0.0
9	0x00000000	0.0
10	0x00000000	0.0
11	0x00000000	0.0
12	0x00000000	0.0
13	0x00000000	0.0
14	0x00000000	0.0
15	0x00000000	0.0
16	0x00000000	0.0
17	0x00000000	0.0
18	0x00000000	0.0
19	0x00000000	0.0
20	0x00000000	0.0
21	0x00000000	0.0
22	0x00000000	0.0
23	0x00000000	0.0
24	0x00000000	0.0
25	0x00000000	0.0
26	0x00000000	0.0
27	0x00000000	0.0
28	0x00000000	0.0
29	0x00000000	0.0
30	0x00000000	0.0
31	0x00000000	0.0
